source/dqn_experiment/p1.pth (torch, 722501 bytes, 34 tensors)

layer1.weight f4 [128, 16]
-0.020241834 -0.082883865 0.09993931 -0.04001183 -0.05754281 -0.017159633 -0.047344927 0.002442468
-0.026151665 0.17930798 -0.08653867 0.021140145 0.06902088 -0.15714397 -0.11244488 0.023367213
0.08063368 -0.190569 -0.040527895 0.015676895 -0.07055571 0.17104888 0.21217135 -0.19853018
0.061377797 0.115737 -0.08672616 -0.0026934328 -0.16614807 0.10564801 0.13587247 0.15537782
0.20444807 0.05516661 0.093846954 0.12214141 -0.18317185 0.07102809 -0.07968796 -0.024249919
0.100862265 -0.086831056 0.005805105 -0.16512962 -0.01151455 -0.108942844 0.024316609 -0.117082104
0.08380994 -0.19324857 -0.0008121822 0.043821204 -0.2276777 0.110930815 0.007378944 0.06370557
0.10029103 -0.2463191 -0.10250714 0.1435528 0.051570628 0.006853507 -0.2182107 0.108703315
-0.003466181 -0.16632849 0.16227622 0.030724378 0.02253555 0.07455215 0.14373289 0.13052368
-0.08522176 0.08244694 0.15315431 -0.13882111 -0.17788342 0.18655293 0.008166439 -0.08701374
-0.067197844 0.208673 0.07083305 0.0670609 0.17208059 0.054838903 0.100619435 -0.043891422
0.056354325 -0.042647973 -0.11715313 0.109970115 -0.17118101 -0.140617 0.03925369 0.054615073
-0.2099616 -0.020228142 -0.1020584 0.029578317 -0.13961744 0.16996749 0.076338015 -0.1108711
0.17356096 0.015504343 0.119849525 0.026497966 0.090660036 0.07750125 0.19440238 -0.19394419
-0.14655663 -0.08840384 -0.048829634 -0.0700837 0.11748815 -0.15719245 0.10491143 -0.09690192
-0.06563348 -0.06034869 -0.22021018 -0.1982537 0.08171143 -0.16878858 -0.06734596 0.16192074
-0.15474114 -0.20987186 -0.22657616 -0.18932249 0.06683547 -0.052248664 0.16934936 -0.03678661
0.10580547 -0.12596485 0.015060287 -0.052461177 0.06773159 0.06292842 -0.121359155 0.036785044
-0.14851904 -0.19212438 -0.0020577477 -0.22830856 -0.0055486714 -0.106051706 -0.036394108 0.20109957
0.07875869 0.06585523 -0.06337352 -0.16528183 -0.10859837 0.21164675 -0.10501686 0.13735177
-0.14196035 -0.07491686 -0.017831374 0.105217874 0.0964739 -0.21363986 -0.23091501 -0.11394076
-0.099299595 0.18313992 0.16360621 0.12679946 -0.12793097 0.08124867 -0.21975872 -0.1894705
-0.041714974 -0.129544 -0.23631082 -0.025832266 0.16723874 0.19505578 -0.045254897 0.013520284
-0.2112185 0.067487806 -0.09973705 -0.038366895 -0.07201898 0.20628251 0.32560572 0.09409297
-0.18118675 -0.10334588 0.20162666 0.13392758 0.037357494 -0.1763277 -0.20221135 0.13247034
-0.22630617 0.14135957 0.18453422 -0.02485014 0.052587938 -0.096594274 -0.23524837 0.18908085
-0.22234912 -0.10204432 0.13534136 -0.14111058 -0.079161905 -0.21451911 -0.21544108 0.0904984
-0.17776707 0.21095945 0.06801795 -0.06108903 0.17112248 -0.14591497 0.19901568 0.08422324
-0.12874223 -0.11456001 0.0067901 -0.10686354 0.0011880678 0.07545208 0.011968227 0.14922383
-0.09951094 -0.030418124 0.034907617 0.124390125 0.13175806 0.060831137 -0.075521626 -0.20549616
-0.022750847 0.12339189 0.16966069 -0.18306199 -0.08942718 -0.1446823 0.08657767 0.027837778
-0.09218099 -0.19163036 0.18443038 0.123507224 0.113407865 -0.09508441 0.10122853 -0.22304851
00000000: 34d2 a5bc 04bf a9bd fbac cc3d 72e3 23bd
00000010: 02b2 6bbd 5c92 8cbc c1ec 41bd d011 203b
00000020: 043c d6bc 839c 373e 303b b1bd 192e ad3c
00000030: d25a 8d3d 59ea 20be 8049 e6bd 996c bf3c
00000040: 4523 a53d 8524 43be 9400 26bd d56c 803c
00000050: 837f 90bd 7027 2f3e 7243 593e 7f4b 4bbe
00000060: 4967 7b3d 8507 ed3d 7c9d b1bd 4e84 30bb
00000070: b822 2abe fc5d d83d 2722 0b3e 5d1b 1f3e
00000080: d65a 513e 62f6 613d d532 c03d 4725 fa3d
00000090: 6791 3bbe 2d77 913d 7133 a3bd c4a7 c6bc
000000a0: e090 ce3d 7bd4 b1bd c038 be3b bd17 29be
000000b0: 86a7 3cbc 6d1d dfbd a033 c73c bec8 efbd
000000c0: 8ca4 ab3d f4e2 45be a0e8 54ba dd7d 333d
000000d0: 5824 69be b22f e33d 12cb f13b 1178 823d
000000e0: 6265 cd3d 133b 7cbe 43ef d1bd 81ff 123e
000000f0: b93b 533d 6293 e03b a072 5fbe d89f de3d
00000100: de28 63bb 0452 2abe bd2b 263e b1b1 fb3c
00000110: 799c b83c ccae 983d b72e 133e 00a8 053e
00000120: bf88 aebd f1d9 a83d 7cd4 1c3e 1f27 0ebe
00000130: 1227 36be bb07 3f3e 87cc 053c 4234 b2bd
00000140: 069f 89bd 60ae 553e eb10 913d 3a57 893d
00000150: e535 303e c29e 603d 9011 ce3d 7ec7 33bd
00000160: cbd3 663d a4af 2ebd fbed efbd 0338 e13d
00000170: 134a 2fbe e7fd 0fbe 7ac8 203d 0eb4 5f3d
00000180: 2c00 57be 7db5 a5bc ff03 d1bd 3a4e f23c
00000190: e0f7 0ebe f50b 2e3e 1b57 9c3d 6310 e3bd
000001a0: f7b9 313e ee05 7e3c ab73 f53d 4312 d93c
000001b0: f8ab b93d fab8 9e3d 6b11 473e 4e99 46be
000001c0: f112 16be 130d b5bd 9501 48bd 0b88 8fbd
000001d0: a19d f03d 0ff7 20be cedb d63d 8474 c6bd
000001e0: d96a 86bd 3030 77bd c77e 61be 0503 4bbe
000001f0: 5258 a73d ead6 2cbe aeec 89bd 8dce 253e
00000200: 7674 1ebe a6e8 56be 9503 68be c1dd 41be
00000210: 09e1 883d b202 56bd eb69 2d3e 8ead 16bd
00000220: 8ab0 d83d eefc 00be 6cbf 763c 88e1 56bd
00000230: dcb6 8a3d 9ee0 803d 268b f8bd eaab 163d
00000240: 6015 18be 41bc 44be 47db 06bb b8c9 69be
00000250: a1d1 b5bb a331 d9bd fd11 15bd 0ced 4d3e
00000260: 3c4c a13d 1bdf 863d fac9 81bd a43f 29be
00000270: d268 debd edb9 583e 1413 d7bd f1a5 0c3e
00000280: 0e5e 11be 036e 99bd 1a13 92bc 787c d73d
00000290: 1c94 c53d 68c4 5abe fc74 6cbe c659 e9bd
000002a0: 965d cbbd 0889 3b3e 6388 273e b8d7 013e
000002b0: 5600 03be b465 a63d 6e08 61be 8e04 42be
000002c0: 52dd 2abd 2fa7 04be 77fb 71be 309e d3bc
000002d0: a240 2b3e b4bc 473e 335d 39bd 2e84 5d3c
000002e0: aa49 58be 0c37 8a3d f042 ccbd 9b26 1dbd
000002f0: b07e 93bd b93b 533e cbb5 a63e d1b3 c03d
00000300: 0589 39be 01a7 d3bd 3877 4e3e 5024 093e
00000310: 2c04 193d 408f 34be 7e10 4fbe 4ea6 073e
00000320: cebc 67be 90c0 103e 8af6 3c3e 8592 cbbc
00000330: 7366 573d 38d3 c5bd f3e4 70be 699e 413e
00000340: 7daf 63be 9dfc d0bd ed96 0a3e 4b7f 10be
00000350: a31f a2bd e6aa 5bbe 969c 5cbe 3a57 b93d
00000360: 9208 36be c105 583e ff4c 8b3d 7e38 7abd
00000370: bb3a 2f3e bc6a 15be c4ca 4b3e 3c7d ac3d
00000380: 01d5 03be 709e eabd 7d7f de3b 46db dabd
00000390: f1b8 9b3a 9f86 9a3d 6216 443c 22ce 183e
000003a0: 64cc cbbd 6e2f f9bc 4afb 0e3d 40c0 fe3d
000003b0: 96eb 063e 122a 793d 15ab 9abd 966d 52be
000003c0: fc5f babc e3b4 fc3d 88bb 2d3e 9a74 3bbe
000003d0: 9925 b7bd 9927 14be a24f b13d 0d0c e43c
000003e0: 63c9 bcbd c03a 44be 51db 3c3e 5bf1 fc3d
000003f0: 6242 e83d 9dbb c2bd e750 cf3d d466 64be

layer1.bias f4 [128]
0.17647482 0.057977557 0.099258214 -0.102111675 -0.17201604 -0.19217868 -0.19165306 0.15398934
0.19711268 -0.13103518 -0.11293655 0.009261679 -0.11448811 0.12529145 -0.105670676 -0.1443741
-0.04744126 0.1816391 -0.24773055 0.1312207 -0.1798325 -0.0034239034 -0.19524641 0.10509203
0.205959 0.03754282 -0.12973519 0.05126346 0.073094025 0.026435258 -0.046517614 -0.016554557
-0.07376374 0.05935539 -0.082754344 0.082530975 -0.05369341 -0.119650625 -0.23821598 0.18006049
-0.100795776 -0.07419631 0.16490822 0.10212873 -0.17651482 0.14268884 -0.020088455 0.21614823
0.19430287 0.02326099 0.10762276 -0.10527369 0.19576803 0.18170261 0.14459479 -0.20073494
0.08418079 0.11716675 -0.040934548 -0.04383831 0.10362608 0.011446782 0.13754559 0.06898223
0.21372017 0.050019592 0.24492581 0.22152452 0.023571335 0.18630919 -0.16137753 -0.14490123
-0.033139188 -0.049982186 -0.20473565 -0.1971167 -0.10920715 -0.03668934 0.04596757 0.12792304
0.07130287 -0.15840521 0.06220864 -0.03208816 -0.04659417 0.002393273 0.09096566 -0.11366736
-0.16091497 -0.028781783 0.14102001 -0.15391074 0.20252666 -0.06954087 0.17094792 -0.123758495
-0.092105255 0.20913775 -0.21494699 0.046687424 -0.15197557 -0.21566162 -0.0010523348 -0.07622073
-0.09846718 -0.082626924 0.18562423 0.101195835 0.09305612 0.21437564 0.07023248 0.22873765
-0.0020783509 -0.22419783 -0.15109184 0.14741671 0.108426206 -0.08026801 0.20400184 -0.17029165
0.12085898 -0.104559064 -0.116014495 0.045398165 -0.023380958 0.062084462 -0.100834586 -0.08654323
00000000: d1b5 343e e079 6d3d e447 cb3d ed1f d1bd
00000010: f924 30be 7dca 44be b340 44be 62af 1d3e
00000020: e8d7 493e 162e 06be 474b e7bd 4cbe 173c
00000030: be78 eabd 674c 003e de69 d8bd ced6 13be
00000040: c451 42bd 9aff 393e 14ad 7dbe b85e 063e
00000050: 0326 38be 9163 60bb adee 47be 7d3a d73d
00000060: ebe6 523e 80c6 193d 4dd9 04be a2f9 513d
00000070: 52b2 953d c18e d83c 4189 3ebd 6c9d 87bc
00000080: 7211 97bd a31e 733d 1c7b a9bd 0006 a93d
00000090: 9fed 5bbd 630b f5bd e4ee 73be c761 383e
000000a0: 046e cebd 3cf4 97bd b3dd 283e de28 d13d
000000b0: 4dc0 34be 061d 123e 8b90 a4bc f655 5d3e
000000c0: 55f7 463e d58d be3c 5269 dc3d bb99 d7bd
000000d0: 6a77 483e 4010 3a3e a810 143e 768d 4dbe
000000e0: fa66 ac3d 1ff5 ef3d fcaa 27bd cd8f 33bd
000000f0: e939 d43d 498b 3b3c c0d8 0c3e 8e46 8d3d
00000100: 76d9 5a3e 58e1 4c3d d5cd 7a3e 53d7 623e
00000110: ac18 c13c d6c7 3e3e 2740 25be fd60 14be
00000120: f5bc 07bd 1fba 4cbd 39a6 51be f6d8 49be
00000130: 00a8 dfbd 9047 16bd 7e48 3c3d 42fe 023e
00000140: 3d07 923d fa34 22be 7dce 7e3d e06e 03bd
00000150: 87d9 3ebd 75d8 1c3b 344c ba3d 6fca e8bd
00000160: e5c6 24be c6c7 ebbc 8d67 103e c79a 1dbe
00000170: 2663 4f3e 726b 8ebd f90c 2f3e 1875 fdbd
00000180: aea1 bcbd 3528 563e 101b 5cbe 503b 3f3d
00000190: 7c9f 1bbe 66d6 5cbe 7fee 89ba 9d19 9cbd
000001a0: 29a9 c9bd 4e38 a9bd 4714 3e3e c33f cf3d
000001b0: 3594 be3d 4a85 5b3e 0cd6 8f3d 343a 6a3e
000001c0: f134 08bb 1e94 65be d2b7 1abe 68f4 163e
000001d0: 8f0e de3d 8e63 a4bd dce5 503e ef60 2ebe
000001e0: ea84 f73d 1023 d6bd 0299 edbd 6df3 393d
000001f0: 6c89 bfbc 474c 7e3d 5d82 cebd 943d b1bd

layer2.weight f4 [128, 128]
-0.0147673115 0.015015392 -0.030463334 0.10284338 0.003925929 -0.06278101 0.021565156 0.048884492
0.04928897 -0.014041788 -0.020579455 -0.049094662 -0.020240493 -0.031803466 0.029597042 0.050982658
-0.07480076 -0.031303838 -0.0015713244 -0.053665396 0.038748283 0.0730123 0.0048494483 -0.078119226
0.079778545 0.058457095 -0.07774446 -0.1470632 0.03842266 -0.05821951 -0.044109855 0.051922522
-0.07013525 0.057501182 0.06423131 -0.005061858 0.038366966 -0.07518896 0.034839127 0.01656156
0.06065282 0.04391114 0.07716482 0.02541525 -0.15801111 0.0072106193 0.09358225 0.048178043
0.08790659 0.027785022 -0.09496178 0.0029736448 -0.04925368 0.06517801 -0.003136305 0.008373549
-0.0412069 0.071135364 0.07608954 -0.093364 -0.08407154 -0.056236904 -0.056793742 -0.050762735
0.012341775 -0.054144505 -0.0806795 -0.008850185 0.02136877 -0.014065745 -0.06909054 0.003200572
0.0057558944 0.08499824 0.022678036 -0.05718841 -0.018522358 0.102577165 0.037719123 0.08169607
0.060372517 0.083482206 0.14365306 -0.035029806 0.018699285 -0.06917475 -0.013327154 -0.04858996
-0.031778775 0.028548159 0.028435584 0.043217927 -0.12333673 0.06214373 0.02528792 -0.01640769
0.06367396 0.062310502 0.010435538 0.113481164 -0.05549926 0.038585115 -0.067898706 0.03357273
-0.018517872 -0.09560297 -0.068664014 -0.0104945 0.0022891103 0.08758791 0.0033976964 0.04625932
-0.03902484 0.06208132 0.050956212 -0.052625768 -0.13144274 -0.06310986 -0.043954305 -0.0021971136
0.03342417 0.033684265 0.042549707 0.056197584 -0.07915635 0.05948134 -0.047330018 0.06925786
-0.044368338 0.04741907 0.069438286 -0.019406267 0.039347626 -0.09091597 0.0756712 -0.059582576
-0.012207374 -0.051353473 -0.0574525 -0.08464088 -0.056104865 0.052002214 -0.0051429784 -0.028322862
-0.04628987 -0.027582444 -0.0856057 0.023439912 -0.080959804 0.025942946 -0.04660113 -0.054419816
-0.032932848 0.0050529023 -0.063391164 0.06462577 0.022808446 -0.08998178 0.0011814447 -0.07737711
0.07533412 -0.050200567 0.056128554 -0.03133773 0.04479237 0.022873944 -0.05227699 -0.039165836
0.030978482 -0.022518601 -0.060985863 0.051928136 0.037365694 0.062422685 0.017712487 -0.019893726
0.07273151 0.010893341 -0.009100511 0.07218414 -0.008097115 0.016943041 -0.004509789 -0.07130818
0.053825874 0.046958618 -0.057778925 0.023552055 -0.01667349 -0.091311604 0.054125678 0.06050676
-0.08094982 0.064884335 0.06367507 0.06432491 0.01082031 0.016286673 0.03226288 -0.02974833
0.048393376 -0.0010063441 -0.0021386817 -0.020484753 -0.04377795 -0.05609529 -0.034669347 -0.026262656
-0.064353615 -0.021672767 -0.03914017 0.044391308 0.04512431 -0.007065288 0.0421186 -0.06062334
-0.07897996 -0.0380148 0.065407045 -0.05817561 -0.03591289 -0.07445465 0.06497203 0.06178291
-0.033812884 -0.048696097 -0.041882087 0.07404121 0.001936445 -0.018460419 0.065093786 -0.029931929
-0.0477846 0.037892707 0.04923695 -0.07180471 -0.019546641 0.020359796 0.048883196 -0.03291848
-0.065857045 0.021433307 -0.06926607 0.05485436 -0.05147911 -0.07956577 0.038608875 0.013113755
-0.058528032 0.047241986 -0.035406314 0.056804113 -0.059109803 -0.06134598 0.039082333 0.03539394
00000000: 98f2 71bc 1e03 763c 3e8e f9bc 8d9f d23d
00000010: 14a5 803b 5593 80bd 69a9 b03c 1b3b 483d
00000020: 3be3 493d 870f 66bc 3f96 a8bc 7c17 49bd
00000030: 64cf a5bc 5a44 02bd 7f75 f23c 31d3 503d
00000040: 2431 99bd 7438 00bd e6f4 cdba 3fd0 5bbd
00000050: 85b6 1e3d 7987 953d 1fe8 9e3b f9fc 9fbd
00000060: ef62 a33d b570 6f3d 7d38 9fbd bc97 16be
00000070: 1461 1d3d 9577 6ebd 89ac 34bd b6ac 543d
00000080: 12a3 8fbd 5c86 6b3d b48b 833d f1dd a5bb
00000090: ae26 1d3d abfc 99bd 79b3 0e3d 1cac 873c
000000a0: 176f 783d 2bdc 333d 9708 9e3d a433 d03c
000000b0: aacd 21be 0f47 ec3b 0da8 bf3d 5756 453d
000000c0: 5f08 b43d 6a9d e33c 527b c2bd 7be1 423b
000000d0: 3abe 49bd 0c7c 853d 778a 4dbb 3631 093c
000000e0: 91c8 28bd 6baf 913d d5d4 9b3d a035 bfbd
000000f0: b32d acbd ab58 66bd 8ea0 68bd 96ec 4fbd
00000100: 2835 4a3c a1c6 5dbd 4b3b a5bd 5e00 11bc
00000110: 8f0d af3c 0374 66bc 577f 8dbd b0c0 513b
00000120: f19b bc3b 8f13 ae3d 4ac7 b93c 653e 6abd
00000130: 33bc 97bc fa13 d23d 5e7f 1a3d 4550 a73d
00000140: 2c49 773d b8f8 aa3d ca19 133e 6a7b 0fbd
00000150: 3e2f 993c 7eab 8dbd 235a 5abc 4406 47bd
00000160: 762a 02bd d4dd e93c bef1 e83c 4805 313d
00000170: f897 fcbd 6d8a 7e3d 9d28 cf3c 6b69 86bc
00000180: 7e67 823d 4c39 7f3d d2f9 2a3c d068 e83d
00000190: 3153 63bd 6d0b 1e3d 7a0e 8bbd 8f83 093d
000001a0: cbb2 97bc 7dcb c3bd b89f 8cbd 20f1 2bbc
000001b0: e604 163b 4a61 b33d e3ab 5e3b 6a7a 3d3d
000001c0: 83d8 1fbd fb48 7e3d 76b7 503d 1e8e 57bd
000001d0: ed98 06be be3f 81bd 6e09 34bd 73fd 0fbb
000001e0: c8e7 083d 83f8 093d 9a48 2e3d 702f 663d
000001f0: b91c a2bd b5a2 733d 1fdd 41bd 11d7 8d3d
00000200: 93bb 35bd 803a 423d a935 8e3d e4f9 9ebc
00000210: fa2a 213d 2732 babd 81f9 9a3d dc0c 74bd
00000220: 7001 48bc 0558 52bd 5053 6bbd 3358 adbd
00000230: 37ce 65bd 4600 553d 6e86 a8bb 5905 e8bc
00000240: 729a 3dbd 94f4 e1bc 0b52 afbd 0f05 c03c
00000250: 41ce a5bd 4d86 d43c d4e0 3ebd 50e7 5ebd
00000260: 98e4 06bd d192 a53b 3ad3 81bd 845a 843d
00000270: c7d8 ba3c 5e48 b8bd b5da 9a3a e477 9ebd
00000280: c648 9a3d 1c9f 4dbd 0ee7 653d fe5b 00bd
00000290: 3478 373d 2362 bb3c 6620 56bd 5b6c 20bd
000002a0: 96c6 fd3c ee78 b8bc 50cc 79bd 99b2 543d
000002b0: c50c 193d eeae 7f3d c719 913c 2bf8 a2bc
000002c0: 42f4 943d fc79 323c 4f1a 15bc 47d5 933d
000002d0: c3a9 04bc 22cc 8a3c dac6 93bb 060a 92bd
000002e0: 8578 5c3d ae57 403d 98a9 6cbd 3df0 c03c
000002f0: d896 88bc 9401 bbbd e3b2 5d3d f0d5 773d
00000300: 05c9 a5bd 14e2 843d 1368 823d c7bc 833d
00000310: ab47 313c a16b 853c 1526 043d c5b2 f3bc
00000320: 2238 463d 4ee7 83ba 2029 0cbb a4cf a7bc
00000330: 8250 33bd 2dc4 65bd 7201 0ebd c824 d7bc
00000340: d4cb 83bd 168b b1bc 7151 20bd a9d3 353d
00000350: 45d4 383d ee83 e7bb 8e84 2c3d 2e50 78bd
00000360: 3fc0 a1bd 68b5 1bbd 21f4 853d 8c49 6ebd
00000370: 6519 13bd ae7b 98bd 0e10 853d 1410 7d3d
00000380: 617f 0abd 8f75 47bd 8d8c 2bbd eba2 973d
00000390: 50d0 fd3a 4e3a 97bc e44f 853d ce33 f5bc
000003a0: c9b9 43bd 6235 1b3d afac 493d 590e 93bd
000003b0: 4720 a0bc 96c9 a63c bf39 483d 87d5 06bd
000003c0: 0fe0 86bd e794 af3c 5fdb 8dbd f7ae 603d
000003d0: c2db 52bd 61f3 a2bd 5724 1e3d 13db 563c
000003e0: 17bb 6fbd d080 413d 3606 11bd 6eab 683d
000003f0: 1f1d 72bd ec45 7bbd cc14 203d 3cf9 103d

layer2.bias f4 [128]
0.04750985 0.032659538 -0.05049504 0.059109583 -0.008562888 -0.07865851 0.04951364 -0.03985514
-0.029579194 -0.05754703 -0.044907782 -0.05606192 -0.009437055 0.062636256 -0.068381146 -0.068800196
-0.057613492 0.072985485 0.056845143 -0.051377192 0.07836283 -0.059119504 -0.0041580293 -0.029396689
-0.03999135 -0.074238576 0.03829335 -0.057416752 0.031347338 0.057531588 0.036976047 0.011669079
0.031845253 -0.029312754 0.0060187224 -0.0046511856 -0.004079175 -0.013932953 -0.06631411 0.0073823733
-0.029198145 -0.06435088 -0.034284115 0.029969312 0.030524207 -0.0738154 -0.0032343506 -0.03649219
-0.074084826 -0.04094444 -0.06500345 0.008957577 -0.03576541 -0.021782639 -0.08537868 -0.06566699
-0.0751339 -0.043081425 -0.07035244 0.05380322 0.0060593914 0.08774728 0.01838771 -0.020433543
0.05506548 0.062415645 0.048135318 -0.031123564 0.08093024 -0.0794352 -0.0057478645 0.04670677
0.017773706 0.05056561 0.059524953 0.03737442 0.06904586 -0.020511637 0.064228155 -0.024910528
-0.076768234 0.079918206 -0.0035756999 -0.07229676 0.033787176 0.025559643 -0.022282818 -0.053382467
0.021492727 0.007820566 -0.036670666 -0.00031044066 0.0095986435 -0.08104452 -0.096017346 0.04267173
-0.008127318 -0.030598857 0.03445358 -0.0032256735 0.06524209 -0.013506043 0.06643443 0.0145330755
-0.046944503 -0.07031204 -0.053403933 -0.07643207 -0.027944816 0.011642071 0.0048852777 -0.026263427
-0.061387084 -0.025488151 0.093190484 0.059309453 -0.057546347 -0.05309311 0.02369155 0.06773019
-0.048854508 -0.037771385 0.07259796 -0.07691283 -0.091807894 -0.03196038 0.03568942 0.052770626
00000000: b099 423d 02c6 053d e3d3 4ebd e41c 723d
00000010: 5b4b 0cbc b717 a1bd d1ce 4a3d 253f 23bd
00000020: 1150 f2bc 6fb6 6bbd 39f1 37bd 2fa1 65bd
00000030: e19d 1abc 7047 803d 6a0b 8cbd 1ee7 8cbd
00000040: 20fc 6bbd 6a79 953d 74d6 683d e470 52bd
00000050: b17c a03d 4b27 72bd 1440 88bb 53d1 f0bc
00000060: f8cd 23bd 650a 98bd 7dd9 1c3d d42d 6bbd
00000070: 1166 003d 3ea6 6b3d 3274 173d aa2f 3f3c
00000080: 2b70 023d 4d21 f0bc b438 c53b f968 98bb
00000090: 9aaa 85bb 0a47 64bc b1cf 87bd d6e7 f13b
000000a0: f330 efbc 65ca 83bd 806d 0cbd 3482 f53c
000000b0: e70d fa3c 872c 97bd 66f7 53bb d678 15bd
000000c0: c9b9 97bd 5bb5 27bd 8720 85bd cdc2 123c
000000d0: c07e 12bd 8171 b2bc 04db aebd 6a7c 86bd
000000e0: cddf 99bd 2676 30bd f114 90bd c460 5c3d
000000f0: dc8d c63b d9b4 b33d d3a1 963c 3f64 a7bc
00000100: 578c 613d 8ca7 7f3d 8a29 453d d8f6 febc
00000110: c1be a53d ecae a2bd 9558 bcbb 994f 3f3d
00000120: 2a9a 913c e31d 4f3d 70d0 733d eb15 193d
00000130: ea67 8d3d 0508 a8bc 0d8a 833d 2a11 ccbc
00000140: aa38 9dbd 28ac a33d 4a56 6abb 5310 94bd
00000150: 6c64 0a3d 7562 d13c 758a b6bc 93a7 5abd
00000160: 8411 b03c d521 003c fb33 16bd a4c2 a2b9
00000170: a143 1d3c abfa a5bd bea4 c4bd 8dc8 2e3d
00000180: 7128 05bc 74aa fabc 321f 0d3d d265 53bb
00000190: a59d 853d 7348 5dbc c60e 883d 231c 6e3c
000001a0: e148 40bd c2ff 8fbd 15be 5abd 6b88 9cbd
000001b0: 87ec e4bc 63be 3e3c ae14 a03b 6626 d7bc
000001c0: 0671 7bbd 87cc d0bc a7da be3d 78ee 723d
000001d0: b8b5 6bbd 2978 59bd c814 c23c 20b6 8a3d
000001e0: aa1b 48bd 2bb6 1abd 3dae 943d 7984 9dbd
000001f0: c705 bcbd e3e8 02bd 122f 123d 0326 583d

layer3.weight f4 [128, 128]
0.020642934 -0.0071705906 -0.016727867 0.033731524 0.05776714 -0.03350158 0.02811966 0.007255218
0.04119361 0.034082685 0.016228413 -0.102700196 -0.025606463 0.059324313 0.027666193 -0.027041156
0.00032165783 -0.025994636 0.060976986 0.07115126 -0.0034989223 -0.030949367 0.024636833 0.016657611
-0.053661693 0.05320786 0.042972144 0.05121975 -0.06111848 -0.042531826 -0.009588173 -0.015725926
0.042706784 0.07789505 -0.04282299 -0.020788131 -0.014808961 -0.008718126 0.026157144 0.005119175
-0.0013877655 -0.017263431 -0.018968685 0.035869088 -0.038022663 0.0006522248 0.04746014 0.0403112
-0.021472953 0.049085777 0.017731313 0.036623582 0.048076317 0.033257034 0.027484987 0.0008101462
0.16099401 -0.060602527 -0.05989772 0.011698802 0.07735233 0.031340808 0.021469649 -0.04937844
-0.06206302 0.07120206 0.02035449 0.058133803 0.07707465 -0.046067063 -3.0834744e-05 -0.048440028
0.06491003 0.013341497 -0.029249111 0.015438158 -0.028609026 0.03484848 -0.062075533 -0.0680608
0.05719925 0.035328027 0.06242804 0.025486296 0.07688541 0.02598807 0.03286377 -0.04217914
0.013737551 0.051275652 -0.024024919 -0.04019704 -0.06545136 0.00800868 -0.019058062 -0.022157103
-0.034677777 -0.038964484 -0.041680213 0.049270406 -0.087865956 0.02155044 -0.009539677 0.06732596
0.059661172 0.07608523 0.06107457 -0.040643375 0.06709569 0.013149634 -0.017499682 -0.053247955
0.024472952 0.0054890853 -0.08589159 0.07520653 -0.030699711 -0.04582319 0.07560046 0.011910534
-0.015424547 0.06997334 0.056013208 0.0061590155 -0.004268949 -0.010893219 -0.032074362 -0.015642107
-0.027943183 0.06674135 -0.052908756 -0.035992924 -0.07932204 0.056675345 0.019312272 0.058327787
0.021960313 0.0065430296 0.02899934 0.08136079 0.0038725426 0.00030289637 -0.030460857 0.023411907
0.043565795 0.034128856 -0.026699523 0.08023523 0.08284136 -0.016498568 -0.04843222 0.08518634
-0.023581475 -0.00898653 0.059789285 -0.0033581648 -0.06270845 0.045486327 -0.022344517 -0.047260925
0.0633184 -0.024779461 -0.029849796 -0.057780255 -0.04442979 0.018555986 0.001443012 0.06599508
0.029717471 0.07684518 -0.040496826 0.076084405 -0.0048145596 -0.0031904483 -0.043123264 0.07490266
-0.08024175 -0.010880519 -0.07847944 -0.020691413 -0.058701932 0.102361865 0.026282212 0.06729404
0.002609005 0.0186589 0.024786664 0.11562109 -0.052897815 0.06954255 -0.0449742 -0.034726657
0.044245686 0.055552315 0.03003437 0.0055274405 0.0455484 0.06007854 0.01406792 0.03224941
-0.030494343 0.02642048 -0.021004854 0.02328741 0.024334267 0.015819859 -0.011842774 0.012726118
-0.021021567 0.017336188 -0.042996973 0.018008398 0.048325956 0.048000284 -0.046511423 0.074853614
0.023656966 0.024459835 0.009224144 -0.008658995 0.029088859 -0.033989035 0.002857259 -0.010983906
0.016976032 -0.014915232 -0.023702454 0.0052347616 -0.0398599 0.069310814 0.042968817 0.033097442
-0.020278683 -0.034639966 -0.012686169 0.03927124 0.044496525 0.04148218 0.08031193 -0.016261267
0.02989913 0.07306239 -0.00038886713 0.017132016 -0.05394152 -0.062058747 0.015546189 0.0091771595
0.044138417 0.06475421 -0.02777953 -0.07301067 0.006858022 0.07629011 0.01851506 -0.005147441
00000000: 5f1b a93c 46f7 eabb e108 89bc 112a 0a3d
00000010: 3d9d 6c3d f438 09bd 345b e63c 2ebd ed3b
00000020: a1ba 283d 499a 0b3d 73f1 843c 7b54 d2bd
00000030: a5c4 d1bc 0dfe 723d 36a4 e23c 6a85 ddbc
00000040: 2fa4 a839 b4f2 d4bc 01c3 793d c0b7 913d
00000050: 2d4e 65bb 8789 fdbc 2fd3 c93c 8b75 883c
00000060: 5dcc 5bbd 7cf0 593d 8f03 303d cdcb 513d
00000070: 5f57 7abd da35 2ebd b617 1dbc a8d3 80bc
00000080: 4fed 2e3d 7187 9f3d 2967 2fbd df4b aabc
00000090: 49a1 72bc 79d6 0ebc 8247 d63c c1be a73b
000000a0: afe5 b5ba 0a6c 8dbc 3764 9bbc 77eb 123d
000000b0: a7bd 1bbd 11fa 2a3a 9065 423d 5b1d 253d
000000c0: 0ce8 afbc 2b0e 493d 4241 913c 9c02 163d
000000d0: aceb 443d 8738 083d 3228 e13c fe5f 543a
000000e0: 9ddb 243e 5b3a 78bd 5057 75bd 55ac 3f3c
000000f0: e66a 9e3d 385f 003d 1ee1 af3c 0c41 4abd
00000100: cb35 7ebd 63d2 913d 76be a63c b61d 6e3d
00000110: 50d9 9d3d d1b0 3cbd 8e54 01b8 0d69 46bd
00000120: 8def 843d 4b96 5a3c d59b efbc 54f0 7c3c
00000130: 7a5d eabc 48bd 0e3d ea42 7ebd 7663 8bbd
00000140: c349 6a3d 1fb4 103d 8bb4 7f3d a3c8 d03c
00000150: 1976 9d3d efe4 d43c 299c 063d 09c4 2cbd
00000160: 7713 613c 6b06 523d e8cf c4bc a7a5 24bd
00000170: 5d0b 86bd d736 033c a71f 9cbc d082 b5bc
00000180: 490a 0ebd 3999 1fbd dfb8 2abd c4cf 493d
00000190: 11f3 b3bd 8c8a b03c 4e4c 1cbc 31e2 893d
000001a0: 465f 743d 93d2 9b3d 5429 7a3d ab79 26bd
000001b0: 7769 893d 9071 573c 7e5b 8fbc 871a 5abd
000001c0: 807b c83c c9dd b33b eee7 afbd e205 9a3d
000001d0: f67d fbbc 19b1 3bbd 6ad4 9a3d 6724 433c
000001e0: 3db7 7cbc 2f4e 8f3d 1b6e 653d 91d1 c93b
000001f0: 8ae2 8bbb 7979 32bc 6860 03bd e023 80bc
00000200: 1ae9 e4bc b0af 883d dab6 58bd 516d 13bd
00000210: 9873 a2bd 6824 683d c534 9e3c 1ee9 6e3d
00000220: 1de6 b33c e966 d63b 0690 ed3c 7ca0 a63d
00000230: 7cca 7d3b 10ce 9e39 0c89 f9bc 54ca bf3c
00000240: 0c72 323d b3ca 0b3d f5b8 dabc 5e52 a43d
00000250: bba8 a93d 0128 87bc dd60 46bd 2d76 ae3d
00000260: f02d c1bc 3d3c 13bc 9ce5 743d a814 5cbb
00000270: 4a6d 80bd df4f 3a3d d90b b7bc ac94 41bd
00000280: 14ad 813d 4cfe cabc 8f87 f4bc fdaa 6cbd
00000290: 03fc 35bd b902 983c 7323 bd3a 6e28 873d
000002a0: 0e72 f33c 0161 9d3d 00e0 25bd 24d2 9b3d
000002b0: 74c3 9dbb d716 51bb 05a2 30bd 9166 993d
000002c0: c955 a4bd 3444 32bc d4b9 a0bd 0a81 a9bc
000002d0: 7071 70bd 19a3 d13d cb4d d73c 75d1 893d
000002e0: d7fb 2a3b 8dda 983c 670d cb3c c0ca ec3d
000002f0: 61ab 58bd 536c 8e3d de36 38bd 8a3d 0ebd
00000300: f73a 353d d38a 633d a40a f63c 881f b53b
00000310: f690 3a3d ea14 763d 227d 663c f517 043d
00000320: 46cf f9bc c36f d83c 5f12 acbc 3dc5 be3c
00000330: a858 c73c a698 813c 3208 42bc 3581 503c
00000340: 6c35 acbc 9f04 8e3c 981d 30bd 5986 933c
00000350: 70f1 453d f29b 443d c382 3ebd da4c 993d
00000360: 41cc c13c fe5f c83c dd20 173c 75de 0dbc
00000370: c24b ee3c 1638 0bbd da40 3b3b d7f5 33bc
00000380: 5211 8b3c 045f 74bc a62b c2bc 5d88 ab3b
00000390: 2244 23bd d4f2 8d3d 1200 303d 2f91 073d
000003a0: 7b1f a6bc a3e2 0dbd a6d9 4fbc e1da 203d
000003b0: fd41 363d 38e9 293d 957a a43d 5936 85bc
000003c0: 05ef f43c bca1 953d dde0 cbb9 7158 8c3c
000003d0: c9f1 5cbd 5031 7ebd 71b5 7e3c cc5b 163c
000003e0: 7cca 343d db9d 843d e691 e3bc 9e86 95bd
000003f0: 42b9 e03b fd3d 9c3d e5ac 973c ddab a8bb

layer3.bias f4 [128]
0.02879765 0.045032796 0.0152828805 0.04768775 0.04887441 0.035840984 0.028630666 0.010280744
0.10739108 0.060631208 0.03139186 -0.0049632783 0.009456087 0.028741626 -0.08395809 0.05677458
-0.0038950113 -0.011922148 -0.02471299 -0.035102326 -0.0608783 0.004382383 -0.05499408 -0.058211677
-0.08250033 0.068596564 -0.04721078 -0.01973123 -0.060126826 -0.03012146 -0.035312142 -0.07324387
-0.063691944 0.060097173 0.06372783 -0.062341973 0.047309734 -0.04773289 0.037492935 -0.030749908
-0.004381139 -0.03440845 0.037070367 -0.030219784 -0.052406035 -0.10288115 0.0026397847 0.005508501
0.045015622 0.066716 0.049862605 -0.059499297 0.05241714 0.03847563 -0.028138064 0.016615544
-0.03219935 -0.00840888 -0.002750375 0.037746616 0.040430352 0.099395454 0.068995535 0.041105427
0.014414433 0.053358994 -0.045292817 -0.058346346 -0.010875057 0.03265887 -0.05843177 -0.0572684
-0.004571378 -0.07519079 -0.087156594 -0.03931749 -0.053598493 0.011342547 0.04178846 0.0030552018
0.035295375 -0.0065368805 0.0137587795 -0.06140636 0.023319064 -0.028654912 0.02131641 0.030057749
0.02908427 0.034644082 -0.07102614 -0.03890129 0.011239855 -0.012492284 -0.09350152 -0.059991702
0.021187253 0.009811335 -0.075795464 -0.03648025 0.052225895 0.07823552 -0.025994265 0.037802633
0.0014643192 -0.022158368 0.047300607 -0.04237085 0.0021544213 0.056114025 -0.025662573 -0.02463805
-0.026871508 0.035577256 0.063105874 -0.043365765 0.054398403 -0.07385977 -0.025843346 -0.05423841
-0.016318884 0.047178768 -0.06798099 0.0290355 -0.017270787 -0.04127005 0.011491011 -0.027987644
00000000: 0de9 eb3c 4f74 383d 0c65 7a3c 3b54 433d
00000010: 8930 483d ffcd 123d dc8a ea3c 9170 283c
00000020: dbef db3d 6e58 783d c094 003d ffa2 a2bb
00000030: b4ed 1a3c 8f73 eb3c 38f2 abbd 768c 683d
00000040: 7243 7fbb 1d55 43bc e572 cabc 75c7 0fbd
00000050: 865b 79bd 189a 8f3b 7941 61bd 5e6f 6ebd
00000060: eff5 a8bd 5b7c 8c3d 1760 41bd 63a3 a1bc
00000070: 8c47 76bd 48c1 f6bc 77a3 10bd e200 96bd
00000080: ec70 82bd 7428 763d bd83 823d 4c5a 7fbd
00000090: dac7 413d 9083 43bd 3192 193d 3be7 fbbc
000000a0: a88f 8fbb e0ef 0cbd 19d7 173d 7b8f f7bc
000000b0: b6a7 56bd 5ab3 d2bd 3d00 2d3b a880 b43b
000000c0: 4d62 383d 66a2 883d bb3c 4c3d 89b5 73bd
000000d0: 5bb3 563d 9f98 1d3d cc81 e6bc 521d 883c
000000e0: 77e3 03bd 66c5 09bc a33f 34bb 329c 1a3d
000000f0: 4c9a 253d d88f cb3d 884d 8d3d 2a5e 283d
00000100: 842a 6c3c f68e 5a3d f684 39bd 94fc 6ebd
00000110: 4c2d 32bc 4fc5 053d 2756 6fbd 4592 6abd
00000120: 80cb 95bb a1fd 99bd 287f b2bd 600b 21bd
00000130: 188a 5bbd 17d6 393c 602a 2b3d c839 483b
00000140: e291 103d 5433 d6bb 816c 613c 3c85 7bbd
00000150: 9f07 bf3c b5bd eabc c09f ae3c ab3b f63c
00000160: 2342 ee3c f4e6 0d3d 2776 91bd f656 1fbd
00000170: 5e27 383c 70ac 4cbc ba7d bfbd dcb9 75bd
00000180: e490 ad3c b9bf 203c a73a 9bbd 516c 15bd
00000190: d2ea 553d f239 a03d edf1 d4bc efd6 1a3d
000001a0: 66ee bf3a 7785 b5bc 48be 413d 0e8d 2dbd
000001b0: 3131 0d3b d2d7 653d 513a d2bc bcd5 c9bc
000001c0: a321 dcbc 75b9 113d a73d 813d 4da0 31bd
000001d0: dcd0 5e3d cb43 97bd 6db5 d3bc 1829 5ebd
000001e0: 2eaf 85bc 863e 413d 9e39 8bbd dbdb ed3c
000001f0: 777b 8dbc c90a 29bd cb44 3c3c 5846 e5bc

layer4.weight f4 [8, 128]
-0.050203733 -0.034909107 -0.048254736 0.07163731 -0.029638536 0.019962035 -0.0021322817 -0.079895
0.04354108 -0.02691545 0.052252002 0.017093234 -0.06424142 0.08462673 0.0683556 -0.024290659
-0.039369635 -0.03944674 -0.04695027 -0.068884574 -0.03621923 -0.085289225 -0.020293146 -0.0882042
0.066859715 -0.01290603 -0.0036787167 0.035054736 -0.06455594 -0.014697574 -0.0045891404 -0.010821484
0.040933512 -0.068654664 -0.04085019 0.045285456 -0.040298868 -0.041564263 0.0012942478 0.07690165
-0.057613306 -0.0037151799 -0.020044483 -0.023278326 -0.070318885 -0.029524941 0.06701068 -0.0068248585
0.03696824 -0.06677931 0.0485925 -0.069141135 -0.070116475 -0.082278855 0.025015078 0.0025214478
-0.04047326 -0.043357242 -0.02969142 -0.051745456 -0.01382044 0.013214715 -0.0068836585 -0.034814857
-0.00074919313 0.06689543 0.0015613958 0.041829668 0.06627243 0.017936751 -0.013280526 0.02407337
-0.05475867 -0.047607046 0.06117513 0.038284443 0.06730012 0.041071527 0.024086937 -0.061611727
0.05219253 -0.0570776 0.06886361 0.029501759 -0.008650199 0.049353056 -0.029481985 0.03562037
0.0821254 0.032234028 0.0352064 0.015352137 -0.029431406 -0.012233682 0.0039408356 0.05723063
-0.0880672 -0.082457066 0.0069461763 -0.018623121 -0.043646265 -0.026031286 0.066341616 -0.027739242
0.051983647 0.008757174 0.023191564 0.04001551 -0.057297587 0.01636979 -0.049054515 -0.055465084
-0.02263257 0.0040725246 0.047741838 -0.0053253397 0.012847327 9.1567636e-05 0.0008967295 0.046629958
-0.035121135 -0.020827673 -0.0714799 0.041066475 -0.07415289 0.041252278 -0.08789055 -0.073218465
0.03301528 -0.08373341 -0.028741412 -0.049661387 0.07050636 -0.030256096 -0.06940729 0.035569504
-0.043196756 -0.015347384 -0.0036444068 0.032722615 -0.08735504 -0.054978162 0.08298545 0.08764843
0.056135572 -0.05219256 -0.069690384 -0.015013717 -0.0577851 0.08103261 0.035483703 0.08218513
0.06902181 -0.085275106 -0.021465749 0.070365004 -0.04652112 0.06420412 -0.028061602 0.034917027
0.07190228 0.06343623 0.013430133 0.08744856 -0.032039486 -0.046803653 -0.07016647 -0.060175806
-0.07499234 -0.036615293 0.018989623 -0.077638626 0.054959737 -0.06701156 -0.0627712 0.05137258
0.048299275 -0.06474356 -0.036421314 0.054384403 -0.061152317 -0.072288096 -0.08076644 0.048431493
-0.022034153 -0.065985106 -0.07899101 0.0006592721 0.0535113 -0.014401585 -0.084558904 -0.04302441
-0.051023226 -0.08156499 -0.056522757 -0.0359636 0.05665251 -0.04879978 -0.060193326 -0.036285948
0.036216915 -0.0066761896 0.06260919 -0.053514525 -0.049787648 0.05313874 -0.04007847 0.03362765
-0.059733577 0.070888765 0.017511897 0.073707424 -0.06534724 0.045363046 -0.06884575 -0.0113404095
0.034100235 0.013073571 -0.08284579 -0.032098956 0.03396158 -0.077472925 -0.04860566 0.049956687
0.013213955 0.024688318 0.044033878 0.009385847 0.0016869977 0.073150225 0.03916184 0.066283874
0.0357282 -0.011218563 0.0401712 -0.007190846 -0.056696855 -0.012328975 0.043416448 -0.015832908
-0.011762783 -0.057973623 0.021553047 0.02640298 0.0062230155 0.008193411 0.051792927 -0.076873004
0.019115068 -0.004178874 -0.0848704 -0.05202652 0.046997316 0.068249874 0.0011516511 0.08405923
00000000: 6ea2 4dbd dafc 0ebd c2a6 45bd 95b6 923d
00000010: 84cc f2bc 6c87 a33c c0bd 0bbb fd9f a3bd
00000020: 2258 323d ca7d dcbc 3206 563d 1c07 8c3c
00000030: 0191 83bd c750 ad3d 05fe 8b3d 34fd c6bc
00000040: 0e42 21bd e892 21bd ed4e 40bd 5b13 8dbd
00000050: 9e5a 14bd 1eac aebd d03d a6bc 67a4 b4bd
00000060: bfed 883d d073 53bc a016 71bb 8e95 0f3d
00000070: e835 84bd 18ce 70bc 8060 96bb 984c 31bc
00000080: e6a9 273d d19a 8cbd 8752 27bd 3e7d 393d
00000090: 6d10 25bd 4a3f 2abd c0a3 a93a 9d7e 9d3d
000000a0: eefb 6bbd 607a 73bb 5434 a4bc 30b2 bebc
000000b0: 5903 90bd 4ade f1bc e53c 893d 10a3 dfbb
000000c0: 026c 173d 97c3 88bd ee08 473d de99 8dbd
000000d0: 3a99 8fbd d181 a8bd 6cec cc3c e03e 253b
000000e0: 4ac7 25bd 5d97 31bd 6c3b f3bc 0bf3 53bd
000000f0: 206f 62bc 8882 583c 5090 e1bb 069a 0ebd
00000100: 8065 44ba 7900 893d c0a7 cc3a 9655 2b3d
00000110: d7b9 873d 18f0 923c 9096 59bc 8435 c53c
00000120: a14a 60bd 9bff 42bd c692 7a3d 26d0 1c3d
00000130: a5d4 893d 9e3a 283d f851 c53c 945c 7cbd
00000140: d6c7 553d 34ca 69bd 5d08 8d3d acad f13c
00000150: 90b9 0dbc 6e26 4a3d 3484 f1bc aae6 113d
00000160: 5d31 a83d d407 043d 9634 103d 8887 7b3c
00000170: 221a f1bc c86f 48bc 2022 813b aa6a 6a3d
00000180: 935c b4bd 40df a8bd c09c e33b 848f 98bc
00000190: 6dc6 32bd 903f d5bc 1dde 873d 683d e3bc
000001a0: ceec 543d 407a 0f3c 3cfc bd3c 4ee7 233d
000001b0: e0b0 6abd f019 863c 63ed 48bd 5b2f 63bd
000001c0: f067 b9bc d072 853b f28c 433d 3080 aebb
000001d0: 987d 523c 0008 c038 8012 6b3a 0eff 3e3d
000001e0: 2edb 0fbd cc9e aabc 0e64 92bd 5235 283d
000001f0: 78dd 97bd 26f8 283d f6ff b3bd 90f3 95bd
00000200: 083b 073d 6c7c abbd 1c73 ebbc bd69 4bbd
00000210: a365 903d a2db f7bc 6925 8ebd 54b1 113d
00000220: 15ef 30bd 9873 7bbc 00d7 6ebb 2608 063d
00000230: 33e7 b2bd c830 61bd 47f4 a93d 0581 b33d
00000240: 6aee 653d dec7 55bd d5b9 8ebd 18fc 75bc
00000250: 12b0 6cbd 6df4 a53d 5c57 113d ad50 a83d
00000260: 4f5b 8d3d b7a4 aebd f0d8 afbc 871b 903d
00000270: ee8c 3ebd 737d 833d 72e1 e5bc 2805 0f3d
00000280: 8141 933d dbea 813d 100a 5c3c 3b18 b33d
00000290: d63b 03bd 30b5 3fbd 70b3 8fbd e87a 76bd
000002a0: 9595 99bd ebf9 15bd 2090 9b3c 0001 9fbd
000002b0: 761d 613d 5b3d 89bd 308e 80bd 0e6c 523d
000002c0: 76d5 453d 4698 84bd 842e 15bd 2ec2 5e3d
000002d0: da7a 7abd c80b 94bd e068 a5bd 1a60 463d
000002e0: f880 b4bc 3323 87bd 0ac6 a1bd 00d3 2c3a
000002f0: aa2e 5b3d a0f4 6bbc 382d adbd 5d3a 30bd
00000300: bbfd 50bd 8c0b a7bd 6884 67bd 914e 13bd
00000310: 760c 683d 47e2 47bd 478d 76bd 93a0 14bd
00000320: 3058 143d f0c3 dabb 3f39 803d 0c32 5bbd
00000330: 22ee 4bbd 02a8 593d 5229 24bd 26bd 093d
00000340: 32ab 74bd 212e 913d 1c75 8f3c ebf3 963d
00000350: c6d4 85bd 9ace 393d 00ff 8cbd 20cd 39bc
00000360: b0ac 0b3d 8832 563c 0eab a9bd 327a 03bd
00000370: 4c1b 0b3d 20aa 9ebd bb16 47bd 629f 4c3d
00000380: 587f 583c 283f ca3c de5c 343d 18c7 193c
00000390: 401e dd3a c9cf 953d 2a68 203d d7bf 873d
000003a0: bc57 123d 10ce 37bc 8e8a 243d 30a1 ebbb
000003b0: f63a 68bd 78ff 49bc 72d5 313d 04b4 81bc
000003c0: b0b8 40bc c075 6dbd 0490 b03c 104b d83c
000003d0: 70ea cb3b a83d 063c d224 543d 986f 9dbd
000003e0: 3497 9c3c f0ee 88bb 88d0 adbd c319 55bd
000003f0: 4280 403d 97c6 8b3d 00f3 963a 3f27 ac3d

layer4.bias f4 [8]
-0.0028162003 -0.022976361 -0.029259965 -0.06600101 -0.07183851 -0.07830385 0.052101947 -0.031556692
00000000: 0090 38bb ec38 bcbc 98b2 efbc 8a2b 87bd
00000010: 1220 93bd c55d a0bd da68 553d 9741 01bd

layer1.weight f4 [128, 16]
-0.0021961927 -0.053899318 0.123594254 -0.05973357 -0.057456195 0.04095298 0.07479173 0.04709637
0.00036391616 0.2311238 -0.034668922 0.07255253 0.12518981 -0.18737662 -0.080363184 0.069844365
0.08226752 -0.22826722 -0.031949908 0.014030188 -0.17625985 0.1570906 0.20567763 -0.22466728
0.04044816 0.11375967 -0.21449998 -0.10651007 -0.21186617 0.13935888 0.22335574 0.16009864
0.22581261 0.05895272 0.18947941 0.18135917 -0.17849305 0.09283361 -0.15825507 -0.02816853
0.11957988 -0.10643938 0.023434699 -0.18117651 -0.02065903 -0.13441032 0.10460758 -0.12907946
0.093598485 -0.17545977 0.013203949 0.08841449 -0.18230325 0.07435912 0.101537585 0.07557154
0.112036735 -0.24789745 -0.16490084 0.18746912 -0.071642965 0.20051298 -0.08135831 0.12448138
-0.026417762 -0.19413963 0.15486291 -0.0019279718 -0.031686872 0.019348145 0.15417674 0.122954875
-0.11390218 0.06335041 0.1746088 -0.14783561 -0.102458715 0.17825758 0.0909788 -0.113541126
-0.0620614 0.23181468 0.09235063 0.09677926 0.19889554 0.0653663 0.21323946 -0.04040557
0.06384474 -0.036564022 -0.11711711 0.14955524 -0.18263131 -0.18468866 0.06210345 0.066679895
-0.20563611 -0.0056124628 -0.10886541 0.042407215 -0.20286706 0.213175 0.019240707 -0.113580674
0.1917837 0.03439468 0.16888377 0.07329339 0.06949717 0.09847656 0.21387473 -0.2038844
-0.15933114 -0.096104205 -0.05308065 -0.07617983 0.12770298 -0.17090082 0.11404768 -0.105345696
-0.07134467 -0.06560436 -0.239395 -0.2155338 0.08882639 -0.18349177 -0.073209465 0.17603621
-0.16821226 -0.228149 -0.24631882 -0.20581633 0.07266116 -0.056798756 0.18410203 -0.03999549
0.11502686 -0.1369279 0.016371965 -0.057029814 0.07362366 0.06840563 -0.13192323 0.039993763
-0.1519739 -0.23898044 0.06501454 -0.18657288 0.038753837 -0.14528707 0.029028803 0.1889213
0.04195708 0.03330767 -0.02841267 -0.13349745 0.034166276 0.22074115 -0.19804546 0.119609356
-0.13545981 -0.074760765 0.01412496 0.14765924 0.14420044 -0.2198146 -0.22334218 -0.1086722
-0.09005618 0.21322945 0.19481319 0.13475582 -0.12028134 0.08997658 -0.23271945 -0.19076514
-0.067228764 -0.17854533 -0.22025841 -0.010195792 0.20698804 0.20117414 -0.11520442 -0.015908033
-0.21512896 0.07069257 -0.06099376 0.009547353 -0.17213777 0.22806069 0.24625129 0.07168451
-0.16560754 -0.0769324 0.23892546 0.1995928 0.15918937 -0.13033384 -0.183056 0.18642765
-0.20789644 0.20581698 0.16848922 -0.06258318 0.111587435 -0.07767397 -0.23681784 0.2479899
-0.23547965 -0.13239306 0.16162223 -0.13866958 -0.03244856 -0.18828523 -0.18859053 0.092641324
-0.20260155 0.22030124 0.117984205 -0.05593294 0.16719928 -0.1766657 0.22926384 0.08585718
-0.120128095 -0.0980171 0.003488779 -0.12023798 0.0124516785 0.10816783 0.048927218 0.19198787
-0.09012556 -0.0010593832 0.053502202 0.16661733 0.17304385 0.08633581 -0.063519895 -0.19360074
-0.009405911 0.14282662 0.15684497 -0.2200922 -0.0016758144 -0.17323712 0.22784531 0.043154687
-0.08143079 -0.1924234 0.20949566 0.15203813 0.13617969 -0.054225236 0.100705534 -0.22959721
00000000: 00ee 0fbb 88c5 5cbd fc1e fd3d 30ab 74bd
00000010: 3057 6bbd 50be 273d 682c 993d 20e8 403d
00000020: 00cc be39 b8ab 6c3e 0001 0ebd 6c96 943d
00000030: c231 003e a8df 3fbe 7495 a4bd 900a 8f3d
00000040: e07b a83d e2be 69be e8dd 02bd e0de 653c
00000050: 767d 34be 5cdc 203e 289d 523e 2e0f 66be
00000060: f8ac 253d d4fa e83d e2a5 5bbe f421 dabd
00000070: 72f3 58be 18b4 0e3e 5eb7 643e e6f0 233e
00000080: 6c3b 673e 6878 713d e406 423e 38b6 393e
00000090: e2c6 36be 8c1f be3d 9e0d 22be b0c1 e6bc
000000a0: 4ce6 f43d e4fc d9bd 20fa bf3c 5686 39be
000000b0: 203d a9bc dca2 09be 803c d63d 682d 04be
000000c0: 90b0 bf3d baab 33be 6055 583c a812 b53d
000000d0: b4ad 3abe 9849 983d f0f2 cf3d 40c5 9a3d
000000e0: 8473 e53d d4d8 7dbe c4db 28be e8f7 3f3e
000000f0: 8cb9 92bd 4653 4d3e 309f a6bd 18f0 fe3d
00000100: 106a d8bc 8acc 46be 6294 1e3e 00b4 fcba
00000110: 18ca 01bd 0080 9e3c 82e0 1d3e c4cf fb3d
00000120: 8c45 e9bd dcbd 813d a6cc 323e 3862 17be
00000130: e0d5 d1bd 2889 363e 1853 ba3d 4088 e8bd
00000140: 1834 7ebd d460 6d3e 5422 bd3d 3434 c63d
00000150: 46ab 4b3e c4de 853d 725b 5a3e 5080 25bd
00000160: 08c1 823d 28c4 15bd 18db efbd 0225 193e
00000170: b403 3bbe 061f 3dbe 3060 7e3d 788f 883d
00000180: 4692 52be c0e8 b7bb d4f4 debd 30b3 2d3d
00000190: 62bc 4fbe 8c4a 5a3e b09e 9d3c fc9c e8bd
000001a0: f262 443e 70e1 0c3d deef 2c3e d81a 963d
000001b0: 8854 8e3d 14ae c93d fa01 5b3e 12c7 50be
000001c0: b427 23be 48d2 c4bd 186b 59bd 2c04 9cbd
000001d0: 92c4 023e a000 2fbe d491 e93d 7cbf d7bd
000001e0: 281d 92bd 945b 86bd f623 75be e4b4 5cbe
000001f0: 9cea b53d 44e5 3bbe d8ee 95bd d642 343e
00000200: d63f 2cbe e49f 69be 003b 7cbe 84c1 52be
00000210: 60cf 943d d0a5 68bd 3e85 3c3e 50d2 23bd
00000220: 3493 eb3d d436 0cbe 801e 863c 1898 69bd
00000230: 00c8 963d 4018 8c3d e216 07be 80d0 233d
00000240: 0c9f 1bbe 4ab7 74be 5826 853d f60c 3fbe
00000250: 58bc 1e3d 22c6 14be d0cd ed3c 9674 413e
00000260: 30db 2b3d a06d 083d b0c1 e8bc 8eb3 08be
00000270: f0f1 0b3d f809 623e 6ecc 4abe c0f5 f43d
00000280: fab5 0abe 2c1c 99bd 606c 673c fc33 173e
00000290: 48a9 133e 1417 61be d0b3 64be 888f debd
000002a0: 606f b8bd d258 5a3e 1c7d 473e 6efd 093e
000002b0: 1056 f6bd a445 b83d 024e 6ebe f057 43be
000002c0: 3caf 89bd 96d4 36be 6c8b 61be 400c 27bc
000002d0: acf4 533e 9800 4e3e 4cf0 ebbd 9051 82bc
000002e0: c44a 5cbe 44c7 903d 98d4 79bd 806c 1c3c
000002f0: e244 30be be88 693e 4c29 7c3e 54cf 923d
00000300: 0695 29be bc8e 9dbd e0a8 743e 0e62 4c3e
00000310: 8a02 233e 3c76 05be 0873 3bbe e4e6 3e3e
00000320: cee2 54be b0c1 523e 7088 2c3e 9c2b 80bd
00000330: f487 e43d 8813 9fbd 6080 72be 10f1 7d3e
00000340: 9421 71be 0c92 07be 4c80 253e 66ff 0dbe
00000350: c8e8 04bd d8cd 40be e01d 41be bcba bd3d
00000360: c876 4fbe a696 613e b4a1 f13d f019 65bd
00000370: 4a36 2b3e dae7 34be 24c4 6a3e e4d5 af3d
00000380: b805 f6bd 30bd c8bd 00a4 643b 543f f6bd
00000390: 2002 4c3c 1887 dd3d e867 483d 7898 443e
000003a0: c093 b8bd 00db 8aba 2025 5b3d bc9d 2a3e
000003b0: 6832 313e d4d0 b03d b816 82bd 463f 46be
000003c0: 401b 1abc 2441 123e f89b 203e da5f 61be
000003d0: 00a7 dbba 1265 31be 4850 693e f8c2 303d
000003e0: 30c5 a6bd a40a 45be 0886 563e e2af 1b3e
000003f0: b072 0b3e 481b 5ebd b43e ce3d 881b 6bbe

layer1.bias f4 [128]
0.23631519 0.054206282 0.106104285 -0.10469401 -0.20593467 -0.20162573 -0.20140669 0.16739103
0.21429652 -0.17214099 -0.10757932 -0.020525724 -0.08204803 0.13049322 -0.08511987 -0.14405966
-0.05104637 0.16167063 -0.20936581 0.1400657 -0.18285763 -0.0037221313 -0.19493511 0.11205971
0.22390229 0.040811002 -0.14412889 0.027141124 0.09946281 0.04904729 -0.019357264 -0.00046136975
-0.0802007 0.06656939 -0.07853332 0.12666085 -0.036447138 -0.09521693 -0.24536026 0.19975922
-0.0952979 -0.0806621 0.18551227 0.11102253 -0.19897643 0.14525595 -0.01754126 0.24410939
0.21810234 0.038799107 0.09759614 -0.12832364 0.23655275 0.1986632 0.16966674 -0.22509277
0.110823095 0.1230492 -0.03432265 -0.05918646 0.12508136 0.009873092 0.17070925 0.08536199
0.23699379 0.050195992 0.24706328 0.22041354 0.025625646 0.21876246 -0.1732899 -0.14540175
-0.04093808 -0.072294086 -0.22255957 -0.21430096 -0.097804785 -0.043971896 0.0677869 0.15736654
0.08249307 -0.17607793 0.08192688 -0.06074941 -0.04637623 0.020703375 0.09020898 -0.11938819
-0.15588886 -0.03128937 0.16115865 -0.13536358 0.21297628 -0.070539325 0.19261822 -0.11287421
-0.079268575 0.22335824 -0.19777161 0.061059475 -0.16542286 -0.21146157 0.053659707 -0.07070875
-0.1499126 -0.14843005 0.21884024 0.105169535 0.11496663 0.2482191 0.09651777 0.1925411
0.00406155 -0.2274254 -0.19036499 0.17778477 0.11677897 -0.06855431 0.23853204 -0.15874621
0.14605644 -0.1044192 -0.11608127 0.07211873 -0.014511347 0.06815097 -0.096217364 -0.094084114
00000000: 9cfc 713e 6807 5e3d 344d d93d d069 d6bd
00000010: 8ae0 52be fa76 4ebe 8e3d 4ebe 8e68 2b3e
00000020: 8c70 5b3e ba45 30be 8c52 dcbd 9025 a8bc
00000030: cc08 a8bd 04a0 053e 5453 aebd 6084 13be
00000040: 0016 51bd fc8c 253e fe63 56be 626d 0f3e
00000050: 083f 3bbe 00ef 73bb 129d 47be 907f e53d
00000060: a446 653e 7029 273d 8696 13be 1057 de3c
00000070: 28b3 cb3d d0e5 483d 2093 9ebc 00e4 f1b9
00000080: 4440 a4bd 8855 883d 14d6 a0bd 62b3 013e
00000090: 9849 15bd 1801 c3bd b83f 7bbe ae8d 4c3e
000000a0: 8c2b c3bd 2c32 a5bd eef6 3d3e c85f e33d
000000b0: 7ac0 4bbe fabd 143e b0b2 8fbc d0f7 793e
000000c0: 3856 5f3e d0eb 1e3d 7ce0 c73d 4667 03be
000000d0: e23a 723e 5e6e 4b3e 1ebd 2d3e b87e 66be
000000e0: 38f7 e23d 3801 fc3d e895 0cbd 806d 72bd
000000f0: 5415 003e c0c2 213c 68ce 2e3e 44d2 ae3d
00000100: 80ae 723e 509a 4d3d 28fe 7c3e 16b4 613e
00000110: e0ec d13c 4403 603e e872 31be 32e4 14be
00000120: b0ae 27bd ec0e 94bd a8e6 63be b671 5bbe
00000130: e04d c8bd e01b 34bd dcd3 8a3d b224 213e
00000140: 20f2 a83d c64d 34be 48c9 a73d 60d4 78bd
00000150: 00f5 3dbd 209a a93c 7cbf b83d cc81 f4bd
00000160: 54a1 1fbe 4829 00bd c606 253e c09c 0abe
00000170: 7416 5a3e ec76 90bd b63d 453e 982a e7bd
00000180: 9057 a2bd 06b8 643e a484 4abe 8019 7a3d
00000190: 9c64 29be 6289 58be 48ca 5b3d c0cf 90bd
000001a0: b082 19be 0cfe 17be a817 603e 2063 d73d
000001b0: a073 eb3d 262d 7e3e 1cab c53d 7e29 453e
000001c0: c016 853b 34e2 68be 0aef 42be 360d 363e
000001d0: d029 ef3d 3466 8cbd be41 743e 5e8e 22be
000001e0: d28f 153e bcd9 d5bd 04bc edbd fcb2 933d
000001f0: 00c1 6dbc bc92 8b3d 9c0d c5bd 2caf c0bd
