source/dqn_experiment/p1.pth (torch, 722501 bytes, 34 tensors)

layer1.weight f4 [128, 16]
0.086546116 -0.027290594 -0.10499529 -0.113995105 -0.16820918 0.07358625 -0.06338675 0.0026068662
0.019542998 -0.10269621 -0.07402163 0.11004597 -0.22241913 0.1910176 -0.05862185 -0.085094824
0.10382043 -0.10362467 -0.22228119 -0.024431748 0.2465226 0.12012561 0.2342762 -0.023232926
0.019166881 0.07574656 0.10441454 -0.037492502 -0.0024958577 -0.17052747 0.20068909 0.0011555675
0.09088067 0.1931222 0.12589073 -0.048824977 -0.20107457 0.0072875237 0.10644227 -0.2524761
0.20495409 -0.24205974 -0.12631108 0.09575286 0.048993696 0.032109197 0.04108495 -0.2524184
0.16811943 -0.05908876 -0.02975435 -0.0637302 0.17981552 -0.030062186 -0.19501005 0.20117053
0.17194809 -0.088925175 0.060790505 -0.080105186 -0.30454296 -0.060531862 -0.19362172 -0.027985264
-0.101729 0.16076091 0.06866031 0.12130601 -0.00822425 -0.1019277 0.32291692 0.21933125
-0.10480262 -0.16296145 0.10253239 -0.039028917 0.2442949 -0.14424543 -0.09565958 -0.16931076
-0.06255067 0.052320167 0.15178387 0.04911256 0.08172664 0.21525262 0.3768931 -0.04733744
0.047787085 0.053116553 0.10238959 -0.10058585 -0.033280738 0.19709873 0.01510164 0.048358083
-0.16264823 -0.07168769 -0.03507115 0.0826593 0.2890488 0.12404686 -0.110553905 0.006972924
0.1695073 0.112546906 0.10943595 0.008822457 -0.07272331 -0.23129572 0.023042362 -0.21789765
-0.05899357 -0.09372369 0.12556085 -0.15480946 0.36392343 0.20805815 -0.08558303 -0.059436664
0.044092894 -0.0031102744 0.14387022 0.09189125 0.15740786 0.20358364 0.046579998 -0.11783856
-0.17858568 0.09213212 -0.069577 0.20353663 -0.23171645 -0.111374944 -0.1181325 -0.07141737
-0.15000807 0.20241629 0.09235961 -0.058148265 -0.10771656 -0.1265411 -0.028110841 -0.20632184
0.1807252 0.008577874 -0.09623154 0.16720085 0.31479862 0.09084352 -0.0038630331 -0.16734934
0.18098262 -0.18357055 -0.17634447 -0.18683092 0.044372812 0.07997972 -0.053248934 0.087852255
0.160879 0.11395916 -0.0018998339 -0.021405911 0.1004984 0.17566173 -0.20883228 0.18727155
-0.1284269 -0.05036682 0.19965988 0.06725731 -0.050131917 -0.16495089 -0.13533814 0.025685057
0.17817025 -0.11849773 0.075055525 -0.030842742 -0.015926298 0.04391311 0.13694689 0.059068643
0.22920707 -0.07663377 0.1229335 -0.040942293 0.059138432 0.110184826 0.12858553 -0.13600837
0.050953846 0.09802362 -0.11432404 -0.15247275 -0.055229455 -0.11379736 -0.16313635 0.038902063
0.062782936 -0.25165236 0.17132059 -0.082829885 0.1042452 0.033067755 -0.077106275 0.1474152
0.080814905 0.13201866 -0.17517747 -0.054871876 0.30503917 0.08518321 0.06693119 0.16187605
0.16062216 0.18236855 -0.14215432 0.12745325 0.21608353 0.15568201 -0.17407969 0.15678078
0.09024153 -0.1582328 -0.049527436 0.11486494 -0.18112679 -0.23571524 -0.34174582 -0.06678954
0.10688293 -0.15073909 -0.10991545 0.14136057 -0.029373387 -0.026388928 0.11635716 0.15436083
-0.105304256 0.040935017 0.10700978 0.08688465 -0.1342099 -0.18239816 -0.34724477 0.12736583
0.15678583 0.12314856 -0.13712128 0.02847883 -0.1440237 0.103988215 0.058722522 -0.09370684
00000000: 173f b13d 8690 dfbc c507 d7bd 4476 e9bd
00000010: 073f 2cbe 63b4 963d ead0 81bd f5d7 2a3b
00000020: a318 a03c 6452 d2bd a798 97bd c85f e13d
00000030: d7c1 63be 1e9a 433e 771d 70bd 3246 aebd
00000040: ce9f d43d 2c39 d4bd ae9d 63be 1725 c8bc
00000050: 6c70 7c3e 6a04 f63d 1ae6 6f3e fa52 bebc
00000060: dd03 9d3c 0321 9b3d 4ad7 d53d bd91 19bd
00000070: 8b91 23bb c19e 2ebe 7181 4d3e 6976 973a
00000080: a51f ba3d d3c1 453e 80e9 003e b3fc 47bd
00000090: 7ee6 4dbe 2ecc ee3b 68fe d93d 8c44 81be
000000a0: 7cdf 513e 82de 77be b157 01be 131a c43d
000000b0: 9dad 483d ef84 033d b148 283d fc3c 81be
000000c0: 8027 2c3e 0e07 72bd 65bf f3bc fb84 82bd
000000d0: 8f21 383e f944 f6bc b7b0 47be a6ff 4d3e
000000e0: 2913 303e 671e b6bd 77ff 783d 300e a4bd
000000f0: 0eed 9bbe 42f0 77bd c644 46be 5a41 e5bc
00000100: 4b57 d0bd 829e 243e c79d 8c3d 496f f83d
00000110: 01bf 06bc 78bf d0bd 5e55 a53e 5f98 603e
00000120: c2a2 d6bd 5edf 26be 80fc d13d c9dc 1fbd
00000130: 7128 7a3e 13b5 13be 2be9 c3bd cd5f 2dbe
00000140: 911a 80bd ac4d 563d 3b6d 1b3e 402a 493d
00000150: 4c60 a73d 2f6b 5c3e 22f8 c03e e7e4 41bd
00000160: 64bc 433d be90 593d a2b1 d13d f4ff cdbd
00000170: 6251 08bd 40d4 493e de6c 773c 2013 463d
00000180: 428d 26be ffd0 92bd c4a6 0fbd 4749 a93d
00000190: 34fe 933e 480c fe3d 166a e2bd 207d e43b
000001a0: 5293 2d3e fe7e e63d f51f e03d 118c 103c
000001b0: f5ef 94bd c9d8 6cbe 56c3 bc3c 9020 5fbe
000001c0: 3ea3 71bd 35f2 bfbd 0693 003e 5f86 1ebe
000001d0: 2c54 ba3e 320d 553e 2846 afbd dc73 73bd
000001e0: c09a 343d bfd5 4bbb b752 133e 7b31 bc3d
000001f0: 872f 213e 3b78 503e abca 3e3d 5855 f1bd
00000200: 2adf 36be c4af bc3d 637e 8ebd e86b 503e
00000210: 1447 6dbe 8c18 e4bd 74ef f1bd 4543 92bd
00000220: b79b 19be 3746 4f3e 0927 bd3d e02c 6ebd
00000230: 809a dcbd fd93 01be b548 e6bc 0846 53be
00000240: 0710 393e 368a 0c3c 0b15 c5bd b336 2b3e
00000250: 492d a13e 2b0c ba3d f12a 7dbb a05d 2bbe
00000260: 8253 393e ebf9 3bbe a593 34be 9b50 3fbe
00000270: 44c0 353d 68cc a33d 8e1b 5abd e2eb b33d
00000280: 77bd 243e 6c63 e93d d903 f9ba 735b afbc
00000290: 1bd2 cd3d abe0 333e 21d8 55be 1dc4 3f3e
000002a0: 5782 03be 704d 4ebd a473 4c3e 33be 893d
000002b0: 2057 4dbd e3e8 28be 1596 0abe 7869 d23c
000002c0: 4372 363e f0ae f2bd b6b6 993d eba9 fcbc
000002d0: de77 82bc 3cde 333d ce3b 0c3e f6f1 713d
000002e0: 42b5 6a3e 2af2 9cbd 8fc4 fb3d 1bb3 27bd
000002f0: 243b 723d 95a8 e13d edab 033e c745 0bbe
00000300: fbb4 503d 9cc0 c83d b922 eabd d121 1cbe
00000310: 4838 62bd 970e e9bd 370d 27be c557 1f3d
00000320: 5794 803d 94d8 80be aa6e 2f3e b7a2 a9bd
00000330: 827e d53d 0e72 073d e5e9 9dbd 03f4 163e
00000340: 4982 a53d e62f 073e b961 33be 55c1 60bd
00000350: 182e 9c3e 8974 ae3d 3813 893d d6c2 253e
00000360: 237a 243e d2be 3a3e e790 11be 1b83 023e
00000370: 0045 5d3e 1b6b 1f3e f241 32be 248b 203e
00000380: 8dd0 b83d c707 22be 48dd 4abd 4f3e eb3d
00000390: 4d79 39be 565f 71be 4ff9 aebe f4c8 88bd
000003a0: 70e5 da3d 595b 1abe 5a1b e1bd d3c0 103e
000003b0: 75a0 f0bc 982d d8bc aa4c ee3d c410 1e3e
000003c0: c2a9 d7bd 7aab 273d f227 db3d 94f0 b13d
000003d0: 526e 09be 95c6 3abe 11ca b1be 306c 023e
000003e0: 778c 203e 5035 fc3d 8569 0cbe 6f4c e93c
000003f0: f37a 13be c6f7 d43d 0787 703d 5fe9 bfbd

layer1.bias f4 [128]
-0.04107748 0.07124104 0.06833226 -0.027223792 -0.14232613 0.08302601 0.13302219 0.06724761
-0.08467941 -0.15976794 -0.111085005 0.21940802 -0.15916939 -0.20239131 -0.102495715 0.08667121
-0.12536168 -0.14492993 -0.075256854 -0.04634758 0.084739245 0.24741389 0.15473749 -0.041722793
0.2086174 0.2326073 -0.08858104 -0.048464704 0.15382452 -0.11454147 -0.22795294 0.10099831
0.07101322 -0.12199847 -0.0797132 0.13895762 -0.032312654 0.07452086 -0.16408761 0.23285338
0.16034989 0.08126477 -0.06577351 -0.12656663 0.13568665 0.11221633 -0.02601369 -0.08150595
-0.080729954 0.16300133 0.0006928214 -0.10822368 0.044726077 -0.24063434 -0.11379788 0.11679562
0.13344681 0.078956015 0.1871525 0.10102616 -0.08979422 0.13451317 0.25228387 -0.17787522
0.17355368 0.13659059 0.040795226 0.18620072 -0.18121901 -0.1894007 0.16641761 -0.047207367
0.20377843 -0.19213957 0.00022325093 0.0765977 -0.017727157 -0.06627036 0.17285582 -0.102577046
-0.11422337 -0.1805501 -0.1897721 0.041936815 -0.21765193 -0.02542717 0.13938136 -0.14017819
-0.2095822 -0.021256499 -0.117656745 0.105335265 0.2246963 0.030659128 0.20618102 0.05485154
0.22064596 -0.16945395 -0.08014294 0.16329652 0.07642261 0.073107064 0.16240077 0.1193332
-0.22239622 -0.21361876 0.08085366 0.07178443 -0.09788418 0.14224282 -0.06415491 -0.13960311
-0.15861972 0.19862664 -0.08400187 -0.07661869 0.1836596 -0.050827175 0.22357665 -0.07939176
-0.22382835 -0.030764872 -0.16390994 -0.08454697 -0.08886609 -0.1914256 0.06183649 0.16210027
00000000: dc40 28bd d3e6 913d c9f1 8b3d 6e04 dfbc
00000010: f1bd 11be 8a09 aa3d f836 083e 1db9 893d
00000020: 666c adbd 359a 23be 8980 e3bd 7fac 603e
00000030: 4dfd 22be ab3f 4fbe 46e9 d1bd ad80 b13d
00000040: d05e 00be 8368 14be 4420 9abd f6d6 3dbd
00000050: c58b ad3d 115a 7d3e 8173 1e3e 85e5 2abd
00000060: cd9f 553e 9c30 6e3e fa69 b5bd ed82 46bd
00000070: 2d84 1d3e b894 eabd 7f6c 69be 34d8 ce3d
00000080: 616f 913d 55da f9bd ad40 a3bd e84a 0e3e
00000090: 465a 04bd 659e 983d 9506 28be 1e71 6e3e
000000a0: c332 243e 256e a63d 43b4 86bd af9a 01be
000000b0: 71f1 0a3e add1 e53d a91a d5bc 97ec a6bd
000000c0: bf55 a5bd d2e9 263e 759e 353a 60a4 ddbd
000000d0: b132 373d d968 76be dd0e e9bd 8b32 ef3d
000000e0: 48a6 083e b1b3 a13d e8a4 3f3e cee6 ce3d
000000f0: 08e6 b7bd d2bd 093e 5a2b 813e ec24 36be
00000100: 0eb8 313e 67de 0b3e e518 273d 67ab 3e3e
00000110: 7a91 39be 42f2 41be 6169 2a3e 835c 41bd
00000120: 4bab 503e 3cc0 44be 7718 6a39 41df 9c3d
00000130: 8b38 91bc c1b8 87bd 1e01 313e ea13 d2bd
00000140: f1ed e9bd 20e2 38be 9e53 42be f0c5 2b3d
00000150: 26e0 5ebe a44c d0bc fdb9 0e3e df8a 0fbe
00000160: b79c 56be 1c22 aebc 05f6 f0bd 04ba d73d
00000170: c916 663e da28 fb3c 1e21 533e 02ac 603d
00000180: 04f1 613e 5685 2dbe fb21 a4bd 3437 273e
00000190: 7583 9c3d 28b9 953d 634c 263e f764 f43d
000001a0: d6bb 63be e0be 5abe 9b96 a53d b703 933d
000001b0: 8077 c8bd 1aa8 113e a663 83bd 1ef4 0ebe
000001c0: 356d 22be c864 4b3e 2c09 acbd 42ea 9cbd
000001d0: 4311 3c3e 2830 50bd 47f1 643e 2698 a2bd
000001e0: 4233 65be 9d06 fcbc 02d8 27be f626 adbd
000001f0: 6dff b5bd 1305 44be 4248 7d3d 9dfd 253e

layer2.weight f4 [128, 128]
-0.06067683 -0.07175105 0.07091537 -0.011983272 -0.04026018 0.02589191 0.015064513 0.025471859
-0.03441836 -0.033527065 -0.041813005 0.04591194 -0.07111332 -0.021896504 0.016858993 0.04490697
0.01488645 -0.05862172 -0.025649698 -0.031850435 0.057245016 0.0014214196 -0.07790293 -0.078995466
-0.010163311 0.084022775 -0.053297784 -0.053340863 -0.06875887 -0.024415115 0.0071950816 -0.06758525
0.030379301 -0.011158525 -0.040972557 -0.012824029 0.054041754 0.009444425 0.07061626 -0.013293474
-0.056631647 -0.056986064 0.04008085 0.054796584 -0.028119907 0.022008974 -0.030313186 0.051328868
0.05025586 0.053331558 -0.048764326 0.06535163 0.07386557 -0.08011962 0.019899845 0.0065636644
0.015712615 -0.07906884 0.07455717 0.024579922 -0.06469891 0.004450909 0.017155243 0.030611612
-0.029340738 -0.011195304 -0.046531968 0.010791771 -0.0003278699 -0.021091985 0.009500019 -0.09449989
-0.019022578 0.05740997 0.06817133 -0.010983144 0.06766781 0.040357325 -0.07866104 0.05945182
-0.015511405 -0.018267479 -0.04755541 -0.076191284 0.00086938485 -0.0076334015 -0.01999971 -0.004328356
-0.045631018 -0.0107203415 0.065887615 0.0019411483 0.015368259 0.044350807 -0.072803825 -0.0062621343
-0.0009104966 -0.09022241 0.0044536344 -0.009459163 -0.019415766 0.010062851 -0.030732019 -0.02957711
0.04851367 0.06180026 -0.08029367 -0.016071148 0.049504094 0.06909743 -0.07973559 -0.06934309
0.0019289599 0.012508446 0.012789281 0.034173623 0.048197277 -0.06428042 0.071681775 -0.031079076
-0.0026453624 -0.026763143 0.010497466 0.054418523 -0.044950094 -0.01991406 -0.023650303 0.020055097
-0.036248036 -0.015012055 0.039710566 -0.06494333 -0.021811329 -0.020671729 -0.054775797 -0.06429916
-0.08402434 0.07359738 -0.0282244 0.07212778 -0.03684335 0.005701416 0.023280505 0.044042107
-0.0050719096 -0.05837793 -0.015457318 -0.037292007 0.013122221 0.010437698 -0.038027465 -0.103951305
-0.087893195 0.10075894 -0.041188706 0.04610094 0.0656892 0.034270063 0.02350665 -0.036646627
-0.053373154 -0.055711813 -0.01578494 -0.049433094 -0.06348886 -0.010426606 0.015811091 -0.04923595
-0.0039233738 0.0021131074 -0.07926406 0.029895257 -0.038326137 0.043149464 -0.0055111693 0.02790503
-0.069909416 -0.038042743 -0.07616975 0.05575727 -0.07564715 -0.074522376 -0.057586577 0.00491216
-0.060898867 -0.07602544 -0.048642714 -0.006397604 0.044732906 -0.013722182 0.0027368213 0.039662886
0.025486786 -0.073360376 0.034999736 -0.027515482 0.069324896 -0.033700865 -0.0640547 0.11255674
-0.0026826314 -0.028437963 -0.02665648 0.106234156 0.0207068 0.0069721653 0.049980216 -0.05740195
0.010635476 0.04148922 -0.021119554 -0.068947785 0.060574144 -0.046065472 -0.0736714 0.031145275
-0.051398285 0.013769669 0.029677037 0.025979044 0.03295854 -0.10666544 -0.06494436 -0.013475702
0.027757209 -0.07027097 0.03379025 -0.025590662 -0.0452596 0.03629803 0.049474616 0.031552862
-0.054450855 0.038438447 0.020566722 0.06254376 0.088398926 -0.068518594 -0.013598925 -0.1016567
-0.03588795 0.005862974 -0.06651298 0.061554447 0.026210558 0.08445258 -0.03984441 0.0052192053
-0.050974593 -0.04372826 -0.019581987 0.059555043 0.0043677124 -0.07213425 0.03463649 0.056239985
00000000: 4588 78bd 37f2 92bd 143c 913d 7c55 44bc
00000010: dce7 24bd 451b d43c 26d1 763c 5caa d03c
00000020: 44fa 0cbd ad53 09bd 1d44 2bbd 290e 3c3d
00000030: dca3 91bd 4c60 b3bc df1b 8a3c 5ff0 373d
00000040: 4ce6 733c 541d 70bd 511f d2bc 9a75 02bd
00000050: c079 6a3d ed4e ba3a 928b 9fbd 60c8 a1bd
00000060: 0484 26bc 2214 ac3d c74e 5abd f37b 5abd
00000070: 73d1 8cbd 3502 c8bc b8c4 eb3b 236a 8abd
00000080: 03de f83c 3fd2 36bc d7d2 27bd e01b 52bc
00000090: e35a 5d3d cabc 1a3c 429f 903d dfcc 59bc
000000a0: 96f6 67bd 386a 69bd d12b 243d 6272 603d
000000b0: b85b e6bc 2a4c b43c 5c53 f8bc 383e 523d
000000c0: 17d9 4d3d 3172 5a3d 1abd 47bd 13d7 853d
000000d0: d546 973d c115 a4bd 0005 a33c 0214 d73b
000000e0: beb7 803c d8ee a1bd 6eb1 983d d55b c93c
000000f0: dd80 84bd eed8 913b 2789 8c3c 34c5 fa3c
00000100: fd5b f0bc 826c 37bc 4e98 3ebd f8cf 303c
00000110: f4e5 abb9 19c9 acbc f8a5 1b3c 2989 c1bd
00000120: 3dd5 9bbc b726 6b3d 699d 8b3d a5f2 33bc
00000130: 6c95 8a3d b94d 253d 0a19 a1bd c083 733d
00000140: 8c23 7ebc aea5 95bc 76c9 42bd 2d0a 9cbd
00000150: 6ee7 633a 9d21 fabb 6fd6 a3bc e2d4 8dbb
00000160: 97e7 3abd 5fa4 2fbc 16f0 863d 216e fe3a
00000170: 26cb 7b3c 31a9 353d 2c1a 95bd 9732 cdbb
00000180: 64ae 6eba 87c6 b8bd cbef 913b 9bfa 1abc
00000190: d00d 9fbc a8de 243c b7c1 fbbc b24b f2bc
000001a0: 45b6 463d 4522 7d3d 0271 a4bd a4a7 83bc
000001b0: cec4 4a3d f482 8d3d 6a4c a3bd c003 8ebd
000001c0: 27d5 fc3a 3af0 4c3c 228a 513c a4f9 0b3d
000001d0: 826a 453d 74a5 83bd e5cd 923d 8c99 febc
000001e0: d15d 2dbb 613e dbbc 90fd 2b3c f5e5 5e3d
000001f0: 971d 38bd d022 a3bc 48be c1bc 964a a43c
00000200: d278 14bd 1ff5 75bc 8ca7 223d 0201 85bd
00000210: acad b2bc c257 a9bc 965c 60bd 47af 83bd
00000220: f414 acbd 39ba 963d db36 e7bc bbb7 933d
00000230: 0de9 16bd f2d2 ba3b c2b6 be3c 7f65 343d
00000240: 4332 a6bb b21d 6fbd b140 7dbc 81bf 18bd
00000250: 96fe 563c e102 2b3c b0c2 1bbd 6ce4 d4bd
00000260: 5901 b4bd b45a ce3d 7db5 28bd 57d4 3c3d
00000270: 0f88 863d c45e 0c3d 0591 c03c c61a 16bd
00000280: cf9d 5abd 1232 64bd 6b4f 81bc 5b7a 4abd
00000290: 7306 82bd 5bd4 2abc 4386 813c a3ab 49bd
000002a0: a58f 80bb 0f7c 0a3b 3255 a2bd e6e6 f43c
000002b0: defb 1cbd 7ebd 303d 0a97 b4bb 1799 e43c
000002c0: ab2c 8fbd b5d2 1bbd e3fe 9bbd bc61 643d
000002d0: e5ec 9abd 309f 98bd e7df 6bbd 2ff6 a03b
000002e0: 1771 79bd 3ab3 9bbd 953d 47bd fea2 d1bb
000002f0: da39 373d 01d3 60bc 3e5c 333b 8d75 223d
00000300: aac9 d03c f73d 96bd e25b 0f3d 2668 e1bc
00000310: 36fa 8d3d eb09 0abd 1c2f 83bd 2684 e63d
00000320: 16cf 2fbb bbf6 e8bc b15e dabc 4b91 d93d
00000330: 4fa1 a93c c376 e43b 0eb8 4c3d 4f1e 6bbd
00000340: 6b40 2e3c 9af0 293d ea02 adbc 7f34 8dbd
00000350: 981c 783d 26af 3cbd 08e1 96bd 6024 ff3c
00000360: 0287 52bd 2e9a 613c 421d f33c 01d2 d43c
00000370: 89ff 063d 6973 dabd 8c01 85bd 31c9 5cbc
00000380: 1663 e33c 3aea 8fbd a567 0a3d 82a3 d1bc
00000390: 2162 39bd 3ead 143d e5a5 4a3d 933d 013d
000003a0: dc07 5fbd a271 1d3d 8b7b a83c f116 803d
000003b0: 7f0a b53d 7a53 8cbd 07ce 5ebc 6331 d0bd
000003c0: 3eff 12bd 311e c03b f537 88bd 8420 7c3d
000003d0: 86b7 d63c 79f5 ac3d e433 23bd de05 ab3b
000003e0: bcca 50bd 671c 33bd 676a a0bc fdef 733d
000003f0: 071f 8f3b 1fbb 93bd fede 0d3d e65b 663d

layer2.bias f4 [128]
-0.06308852 0.053977024 0.007025716 -0.059646387 -0.055356786 -0.05600229 -0.032053012 -0.027835999
0.03661304 -0.0077868816 -0.06290119 0.03527469 0.07733994 -0.013432008 -0.008785231 -0.013216485
0.0063847676 0.07123693 0.0010062809 0.024134986 0.030284686 0.072520286 -0.053262405 -0.0042158593
-0.029226184 0.024821537 -0.06646825 0.011272965 -0.064333454 0.06035363 0.017151762 -0.045971803
0.027512116 -0.016724857 0.03029344 -0.03817356 -0.043600142 -0.067401856 -0.0143703995 -0.06241165
-0.049894005 0.10237441 -0.0867879 0.049582046 -0.008084857 -0.041758873 0.025010688 -0.074719414
-0.06406179 -0.07019262 0.01982289 -0.029201321 -0.063653246 0.017337054 -0.06875344 -0.043980423
-0.057324015 0.008129158 0.07048742 -0.06759267 -0.011418353 0.03851488 -0.037341382 0.037746686
0.024924222 -0.01065586 0.035104968 0.064577036 0.038706493 -0.06078292 -0.040725097 -0.016107151
-0.041304454 -0.028161049 -0.06660581 0.01725602 -0.05796949 0.053242363 0.06903628 -0.07253448
-0.058813326 0.012614131 -0.078089215 -0.040559046 -0.046850547 -0.011627587 -0.08131631 0.03690658
0.038606938 -0.0064880652 0.037620608 -0.0044145784 -0.033975612 -0.060799118 -0.057295818 0.052881088
-0.07278986 0.068208344 0.06865454 -0.04774078 0.03871946 -0.048719164 0.060244266 -0.08326657
-0.0048480593 0.08954089 0.09279742 -0.027842388 -0.052479073 0.0388285 0.026260702 -0.021320404
0.043650813 0.058733143 0.02142255 -0.029118024 0.07292413 -0.015785273 -0.01576868 0.049578298
0.01774056 -0.0688829 0.06771219 -0.03757477 -0.02083584 0.05071106 -0.052684963 -0.06721708
00000000: 8e34 81bd 0317 5d3d fa37 e63b c54f 74bd
00000010: ccbd 62bd a862 65bd 054a 03bd 5208 e4bc
00000020: 8ef7 153d 1929 ffbb 57d2 80bd 317c 103d
00000030: 6764 9e3d ed11 5cbc eeef 0fbc f589 58bc
00000040: 5037 d13b abe4 913d 2fe5 833a bcb6 c53c
00000050: 9717 f83c 8485 943d ae29 5abd 3125 8abb
00000060: c06b efbc 8956 cb3c 8120 88bd 3eb2 383c
00000070: 42c1 83bd 5e35 773d da81 8c3c ee4c 3cbd
00000080: 1761 e13c 9102 89bc f329 f83c e15b 1cbd
00000090: 1096 32bd fc09 8abd d371 6bbc 5ca3 7fbd
000000a0: a85d 4cbd ada9 d13d dbbd b1bd 8b16 4b3d
000000b0: 5976 04bc 5a0b 2bbd 37e3 cc3c 7e06 99bd
000000c0: d432 83bd 26c1 8fbd 9d63 a23c 9c37 efbc
000000d0: a25c 82bd 7006 8e3c 9bce 8cbd d124 34bd
000000e0: 96cc 6abd 2930 053c b55b 903d 076e 8abd
000000f0: 0b14 3bbc c7c1 1d3d 47f3 18bd 459c 1a3d
00000100: e22d cc3c eb95 2ebc 3aca 0f3d f740 843d
00000110: b38a 1e3d 83f7 78bd 5ccf 26bd 25f3 83bc
00000120: dc2e 29bd 00b2 e6bc a068 88bd 7f5c 8d3c
00000130: 6a71 6dbd aa14 5a3d e562 8d3d f58c 94bd
00000140: 3ee6 70bd 80ab 4e3c 3ded 9fbd 3e21 26bd
00000150: 5ce6 3fbd a281 3ebc 2a89 a6bd 5b2b 173d
00000160: 4f22 1e3d d699 d4bb 1118 1a3d 2ba8 90bb
00000170: 032a 0bbd 7f08 79bd 05af 6abd d799 583d
00000180: da12 95bd d1b0 8b3d c09a 8c3d d68b 43bd
00000190: 4c98 1e3d bf8d 47bd b1c2 763d aa87 aabd
000001a0: 78dc 9ebb 3761 b73d 930c be3d b815 e4bc
000001b0: 4cf4 56bd a20a 1f3d af20 d73c 21a8 aebc
000001c0: 32cb 323d 2a92 703d 587e af3c ec88 eebc
000001d0: 3f59 953d 1e50 81bc 522d 81bc 9d12 4b3d
000001e0: a754 913c 7a12 8dbd b0ac 8a3d 01e8 19bd
000001f0: ecaf aabc 67b6 4f3d 30cc 57bd 1ca9 89bd

layer3.weight f4 [128, 128]
0.04240447 -0.03174789 -0.04813038 0.041501466 0.0026717265 0.01687732 -0.030637426 0.039706405
0.03931332 0.056029696 -0.041271932 -0.013561083 0.0015447149 -0.030168 0.030142142 0.0033825692
0.06049435 0.005544042 0.011323482 0.068018064 -0.05092956 -0.072077245 -0.046301927 0.0736895
-0.042249132 -0.03228621 -0.016953059 -0.0029516234 0.014361243 -0.0009447843 0.04377239 -0.021009907
-0.013582434 -0.017143456 -0.024025677 0.057465564 0.028126908 0.08353017 -0.0802575 0.07253718
0.0113624055 0.04148844 0.033935964 0.08031564 -0.015165515 -0.01740386 0.07338976 0.004084727
-0.041653045 0.03670064 0.06419611 0.081701435 -0.024948 -0.012074092 0.02236677 -0.026681362
-0.085940614 -0.03982663 0.054340668 -0.011197152 0.07729511 0.025874972 -0.068515934 0.05872119
-0.042722262 -0.042433448 -0.023859855 0.03744945 0.05857902 0.06152169 -0.009058528 -0.04139826
-0.054641947 -0.0021110033 0.07723971 -0.09982892 0.012265061 -0.0025158746 0.07043029 0.03333401
-0.010505768 0.075649686 -0.012416402 0.104038365 0.06492438 0.033101693 0.032920603 -0.031506933
-0.05928282 -0.056176346 0.07440785 -0.022368236 -0.06601834 0.05833295 0.067802995 -0.024078017
-0.024325892 0.038253777 0.032268085 0.018795503 0.033969924 -0.055166095 -0.017911645 0.063729234
0.04906257 0.0062262793 0.060451567 0.057139847 -0.025772868 0.04395726 -0.061961133 0.066428766
-0.0044349455 -0.03762787 0.032677 0.05118349 -0.071686104 0.051998056 -0.00042097655 0.07636639
0.071412034 0.012412565 -0.07124586 -0.053653408 0.070108384 0.036117036 -0.03776667 0.040628225
0.06634573 -0.06454508 -0.042963017 0.031031689 -0.07105321 -0.020176847 0.0020155169 0.088520214
-0.022622515 0.073791996 0.07230971 -0.052983776 -0.15426826 0.07633066 0.01047426 -0.039402727
-0.06887809 -0.029992068 0.019545931 -0.046321616 0.04347918 -0.043337084 -0.04819547 -0.02086047
-0.041684613 -0.035521906 0.08265138 -0.0028072752 -0.02375332 -0.055034585 0.07584643 -0.038446914
0.040355965 0.009117878 0.021591935 -0.04724455 -0.06761355 0.0053647533 0.024556065 0.038733993
0.042989988 -0.0474751 -0.01702115 0.010934741 -0.046001125 -0.11095865 0.07457227 -0.007003089
-0.0077694566 0.012698951 -0.007679791 0.009762872 0.010293006 -0.017428726 -0.0734419 -0.051397458
0.00070471416 0.040604774 -0.036781076 0.028648611 -0.042968545 0.04404886 0.030986212 0.038036857
-0.0025661888 -0.04175144 0.047390647 0.036987633 -0.00094157725 0.0670841 0.024757223 -0.05022963
0.068305045 -0.0023704995 -0.022863554 -0.029431714 0.009489383 0.021373166 -0.036531772 -0.03762379
-0.044960953 -0.0045683314 0.032669596 0.053716827 -0.0018334844 0.010138872 -0.012867535 -0.06313118
-0.007114258 -0.011248417 0.033560958 0.09939345 -0.07049077 0.058290202 0.04721983 0.006364444
0.0017116952 0.04952503 0.02862954 0.04987184 0.03137646 -0.060830005 0.018780934 0.034143783
0.044751544 0.06634722 0.05241836 0.04708045 0.07466479 -0.052831266 -0.0679264 -0.07966688
0.04406692 -0.036995977 -0.0028271936 -0.0069365413 -0.03868679 0.0113780135 -0.011421939 -0.03659086
0.027611012 -0.031758048 -0.019017871 -0.033117108 0.004124539 0.017943213 0.042687785 0.059591766
00000000: 4fb0 2d3d 130a 02bd 5d24 45bd 71fd 293d
00000010: 2218 2f3b 4e42 8a3c 57fb fabc 2fa3 223d
00000020: 0107 213d 657f 653d c20c 29bd 4e2f 5ebc
00000030: 0878 ca3a e222 f7bc a7ec f63c 18ae 5d3b
00000040: ecc8 773d ccaa b53b 2086 393c 0e4d 8b3d
00000050: 849b 50bd 3c9d 93bd 17a7 3dbd 85ea 963d
00000060: 6d0d 2dbd 8c3e 04bd 24e1 8abc 0670 41bb
00000070: 6b4b 6b3c 67ab 77ba ad4a 333d f81c acbc
00000080: db88 5ebc 6f70 8cbc 7fd1 c4bc 0361 6b3d
00000090: 676a e63c de11 ab3d 0b5e a4bd 5f8e 943d
000000a0: 6229 3a3c c8ef 293d 7000 0b3d 877c a43d
000000b0: c878 78bc 8a92 8ebc 5f4d 963d 2cd9 853b
000000c0: 629c 2abd 6953 163d 4079 833d 1553 a73d
000000d0: c05f ccbc 6ad2 45bc 843a b73c df92 dabc
000000e0: a201 b0bd 4021 23bd 5294 5e3d 4274 37bc
000000f0: e64c 9e3d c0f7 d33c 1552 8cbd a185 703d
00000100: 8afd 2ebd b2ce 2dbd be75 c3bc 9864 193d
00000110: 8ef0 6f3d 2bfe 7b3d 386a 14bc 3991 29bd
00000120: 3cd0 5fbd c258 0abb da2f 9e3d 1b73 ccbd
00000130: 65f3 483c 5fe1 24bb c23d 903d 3e89 083d
00000140: 6220 2cbc 39ee 9a3d 2a6e 4bbc 1112 d53d
00000150: 13f7 843d a495 073d c1d7 063d 6a0d 01bd
00000160: 8bd2 72bd 2b19 66bd 2563 983d 973d b7bc
00000170: a034 87bd 88ee 6e3d 4cdc 8a3d 433f c5bc
00000180: 1847 c7bc feaf 1c3d 8a2b 043d 07f9 993c
00000190: 0c24 0b3d d8f5 61bd 71bb 92bc 7984 823d
000001a0: d5f5 483d d105 cc3b 109c 773d 790b 6a3d
000001b0: 9f21 d3bc 870c 343d f5ca 7dbd ce0b 883d
000001c0: 0553 91bb ae1f 1abd 51d8 053d c7a5 513d
000001d0: 2ad0 92bd eafb 543d 84b6 dcb9 fb65 9c3d
000001e0: 7940 923d 125e 4b3c 59e9 91bd adc3 5bbd
000001f0: fc94 8f3d 75ef 133d 39b1 1abd c869 263d
00000200: 45e0 873d 3630 84bd fdf9 2fbd 2b36 fe3c
00000210: 5884 91bd ea49 a5bc c316 043b 164a b53d
00000220: da52 b9bc 4220 973d 1d17 943d 8405 59bd
00000230: 80f8 1dbe 4053 9c3d 3b9c 2b3c c164 21bd
00000240: f50f 8dbd edb1 f5bc ca1e a03c bcbb 3dbd
00000250: 3a17 323d 3a82 31bd 9d68 45bd 94e3 aabc
00000260: 7cbd 2abd 6b7f 11bd 2045 a93d 43fa 37bb
00000270: 5396 c2bc f26b 61bd 6055 9b3d 837a 1dbd
00000280: 4c4c 253d 2763 153c 92e1 b03c 8083 41bd
00000290: f978 8abd d0ca af3b cd29 c93c 89a7 1e3d
000002a0: 4516 303d 4075 42bd f06f 8bbc a127 333c
000002b0: ad6b 3cbd 4a3e e3bd 59b9 983d 2b7a e5bb
000002c0: ed96 febb 430f 503c c2a6 fbbb 74f4 1f3c
000002d0: ffa3 283c b0c6 8ebc b568 96bd 2486 52bd
000002e0: 91bc 383a 3151 263d c1a7 16bd 7eb0 ea3c
000002f0: c9ff 2fbd 946c 343d ccd6 fd3c 89cc 1b3d
00000300: 812d 28bb 8f03 2bbd b21c 423d 5880 173d
00000310: 2ed4 76ba 6363 893d a9cf ca3c 96bd 4dbd
00000320: 84e3 8b3d 625a 1bbb 594c bbbc c71a f1bc
00000330: 5b79 1b3c c716 af3c 57a2 15bd 671b 1abd
00000340: fa28 38bd f1b1 95bb 8ed0 053d 2d06 5c3d
00000350: 8751 f0ba 831d 263c 5bd2 52bc ec4a 81bd
00000360: b91e e9bb 484b 38bc 3777 093d cb8e cb3d
00000370: 775d 90bd b5c1 6e3d 9569 413d d38c d03b
00000380: f65a e03a c2da 4a3d 7f88 ea3c 6a46 4c3d
00000390: 9a84 003d e228 79bd 79da 993c 5ada 0b3d
000003a0: 654d 373d 0de1 873d a2b4 563d 6ed7 403d
000003b0: dae9 983d 9965 58bd ff1c 8bbd 6428 a3bd
000003c0: 847f 343d 1889 17bd 7048 39bb ed4b e3bb
000003d0: 0a76 1ebd d96a 3a3c 1623 3bbc 4ce0 15bd
000003e0: 7d30 e23c ba14 02bd 5ecb 9bbc cea5 07bd
000003f0: 2427 873b a5fd 923c 63d9 2e3d 7f16 743d

layer3.bias f4 [128]
0.08443599 -0.0741151 -0.007412491 -0.09071378 0.00788796 -0.0034073642 -0.021436507 -0.0046540615
-0.035678707 0.047257554 0.07514553 0.049481098 -0.014983692 0.063376054 -0.05113161 -0.07435166
-0.040514078 -0.021418056 0.00013097639 0.0038365682 -0.015483746 0.02015142 0.049303237 0.0033726287
0.03350424 -0.023886796 -0.067870505 0.111807905 -0.038203064 0.062346265 -0.076239415 0.03888413
-0.036073282 0.017083988 0.0047239256 -0.064535715 -0.05153755 -0.08560065 -0.0036247475 0.02649271
0.05215237 -0.0649078 0.05243169 -0.03508877 -0.015160447 0.077775784 -0.034334067 -0.019866945
0.011226764 -0.022311734 0.012791811 -0.032977194 -0.060092017 0.034812614 0.034841847 0.06523602
-0.015279043 -0.031666845 -0.02629736 0.04809213 0.0077425307 -0.06931771 -0.017795634 0.04063815
-0.066734225 -0.05995386 -0.047425173 0.012641836 0.05276861 0.060572848 -0.07823682 0.03191071
-0.024000952 -0.015602276 0.02750424 0.031516057 -0.020376576 0.008352371 0.01651129 0.033332754
-0.03526347 0.08613493 -0.040421125 0.06445508 -0.006261077 -0.008907281 0.013547589 -0.07449862
0.023608154 -0.04796874 0.024922343 0.046454936 -0.027375426 0.002599448 -0.051145565 -0.015149383
-0.07224978 -0.023965 -0.0026467866 0.004966447 0.0372639 0.0076306923 -0.05010056 -0.03421038
0.021176606 0.1047504 -0.039635062 0.006732949 0.041459337 -0.07699301 0.061890066 -0.08276449
0.060546346 0.01096359 0.06689832 -0.0035133865 -0.07399175 -0.04979717 -0.050881907 0.05502592
0.028947037 0.040952496 0.062962644 -0.02108961 0.033922423 -0.0027180922 0.037857454 0.01803153
00000000: c7ec ac3d a8c9 97bd 7be4 f2bb 25c8 b9bd
00000010: 813c 013c 164e 5fbb 9d9b afbc 1981 98bb
00000020: d623 12bd 2391 413d e6e5 993d b1ac 4a3d
00000030: 297e 75bc 4ecb 813d 616f 51bd af45 98bd
00000040: 17f2 25bd eb74 afbc b556 0939 ef6e 7b3b
00000050: 8aaf 7dbc 9714 a53c 31f2 493d 5207 5d3b
00000060: be3b 093d 3eae c3bc b1ff 8abd 8bfb e43d
00000070: d17a 1cbd cc5e 7f3d 6923 9cbd f744 1f3d
00000080: 94c1 13bd b8f3 8b3c 29cb 9a3b 4d2b 84bd
00000090: 0a19 53bd 654f afbd 2c8d 6dbb 3d07 d93c
000000a0: b99d 553d 61ee 84bd 9dc2 563d 3eb9 0fbd
000000b0: 8663 78bc e948 9f3d e1a1 0cbd 01c0 a2bc
000000c0: 76f0 373c 19c7 b6bc be94 513c 1813 07bd
000000d0: 0c23 76bd ac97 0e3d 53b6 0e3d 769a 853d
000000e0: f354 7abc 18b5 01bd 906d d7bc 41fc 443d
000000f0: 0eb5 fd3b 72f6 8dbd 26c8 91bc 3074 263d
00000100: f4ab 88bd 2e92 75bd e640 42bd b41f 4f3c
00000110: e623 583d 3c1b 783d a03a a0bd ceb4 023d
00000120: a59d c4bc b0a0 7fbc 9250 e13c fb16 013d
00000130: c7ec a6bc 62d8 083c af42 873c ed87 083d
00000140: 6e70 10bd 8367 b03d 9f90 25bd 0601 843d
00000150: b829 cdbb d8ef 11bc b5f6 5d3c bc92 98bd
00000160: e365 c13c df7a 44bd f129 cc3c 8847 3e3d
00000170: 6e42 e0bc 805b 2a3b 037e 51bd 1e35 78bc
00000180: b1f7 93bd 3f52 c4bc b675 2dbb 94bd a23b
00000190: 08a2 183d e30a fa3b 3f36 4dbd 2f20 0cbd
000001a0: 907a ad3c 6187 d63d 6058 22bd 12a0 dc3b
000001b0: 44d1 293d 83ae 9dbd 7080 7d3d 6e80 a9bd
000001c0: 72ff 773d a1a0 333c fd01 893d d840 66bb
000001d0: fd88 97bd 1ef8 4bbd 8c69 50bd dc62 613d
000001e0: 5622 ed3c cebd 273d 8ff2 803d 1ec4 acbc
000001f0: 3df2 0a3d 0522 32bb 6b10 1b3d dcb6 933c

layer4.weight f4 [8, 128]
-0.019319832 -0.043151606 -0.06467628 0.072733305 0.047684766 -0.050298154 0.055304594 -0.072947666
-0.016222782 0.0410062 0.004155837 -0.08398526 0.00903701 -0.029778928 -0.08305726 0.037069432
-4.8801303e-06 0.073942 0.010916263 -0.052601837 -0.06470241 -0.031158626 0.004894927 0.0006970167
-0.0085630715 0.041357644 -0.06809152 0.08618248 -0.0047299713 0.05589608 -0.011714138 0.032268763
-0.058408808 -0.060790747 0.0063726977 0.04539428 0.051154457 0.08772781 0.06874501 0.054872684
0.08535326 -0.04516567 0.040985234 -0.0075343847 -0.011118688 -0.06483117 0.015987761 -0.011606358
0.024812944 0.053003184 -0.05203455 0.048014157 0.049339183 -0.013079524 -0.06615106 0.010906279
0.04268042 -0.005047366 0.05638685 0.061824597 -0.028221264 -0.018021993 -0.04940586 0.043279164
-0.057854924 -0.045472275 -0.057986088 0.027330913 -0.06920249 0.06957816 -0.06905528 -0.043566197
-0.00031124055 0.073344044 0.057405107 -0.041819207 0.026363373 -0.06822406 -0.06656202 -0.023210771
0.01993423 -0.059712075 0.0050358847 -0.050535712 -0.026789181 -0.083331965 0.048101835 0.065291844
-0.035839602 -0.023266114 -0.0012978166 -0.049591824 0.04668189 -0.024176687 0.059402995 -0.033775378
-0.0024166182 0.03240686 -0.008400992 -0.0124744475 -0.032412253 0.07438745 -0.05769012 0.041902535
0.037532903 0.039945565 0.07277203 0.004870698 -0.033951815 -0.031856675 -0.023930475 0.026846401
0.04011967 -0.00012102723 0.004031144 0.05335068 0.064565994 -0.08343527 -0.07366668 0.060695045
0.052220963 0.065654136 -0.05224268 0.012985013 0.014247932 -0.04352213 0.0657158 0.08456039
0.082167216 0.070100255 -0.08156576 0.014709011 0.053214796 0.06622141 0.06877153 -0.06966899
0.081613876 -0.01587224 0.06865009 0.010062411 -0.07533095 0.04165829 -0.020706937 0.041426606
-0.028110031 0.068995394 0.0030243844 0.022084773 -0.057145026 0.04553195 -0.08281966 0.014979966
0.058761455 0.059665553 0.019516744 0.056929745 -0.071075514 -0.018377088 -0.02053465 -0.038349755
-0.016207084 0.033465274 -0.0018234551 -0.042398453 0.045042522 0.08153374 -0.019275784 0.050364636
-0.0034416988 0.081579454 0.051835664 0.06237232 0.009869598 0.04714275 -0.0065379217 -0.009948164
-0.008951545 0.036482215 -0.07014178 0.06417941 0.060369648 0.06564837 -0.07676672 -0.083002836
0.0670997 0.021751717 -0.067120776 0.011105917 -0.0545083 0.07247325 0.02020774 -0.077648215
0.015420489 -0.064632505 0.055262916 -0.010462388 -0.05605888 -0.039865166 -0.041850165 -0.042894848
-0.01684641 0.064293034 -0.08170564 -0.007010326 -0.0073236227 0.032041214 0.0743675 -0.023585081
-0.032647002 0.0033101216 -0.043299004 0.08389471 -0.04346815 0.03457488 -0.04269857 -0.03137364
0.07495258 -0.0569015 0.067906596 0.01186619 -0.0782441 -0.012446806 -0.048369966 0.0743298
0.03500183 0.08691574 -0.005666241 -0.019899003 0.07132972 0.021492377 0.007800095 0.07305034
0.022846408 -0.035412792 -0.07217377 -0.061300967 -0.071784414 -0.08813597 0.02187927 0.027303621
-0.0856962 0.08684517 0.077151425 -0.073621154 0.050931238 -0.074475124 -0.0075684786 -0.050284002
0.061637886 0.022817142 0.08660745 -0.0671822 -0.06927209 0.032382615 0.062295996 -0.07409148
00000000: a044 9ebc bdbf 30bd ff74 84bd 33f5 943d
00000010: 1a51 433d 7005 4ebd 1287 623d 9665 95bd
00000020: a4e5 84bc 1ef6 273d b02d 883b 7700 acbd
00000030: f80f 143c f0f2 f3bc ed19 aabd 1ed6 173d
00000040: 00c0 a3b6 e76e 973d 20da 323c 0675 57bd
00000050: b282 84bd 6040 ffbc a065 a03b 00b8 363a
00000060: 204c 0cbc a266 293d 9173 8bbd 7180 b03d
00000070: e0fd 9abb 4af3 643d a8ec 3fbc 402c 043d
00000080: 133e 6fbd b8ff 78bd 10d2 d03b 5aef 393d
00000090: 5687 513d a3aa b33d 2fca 8c3d 2ec2 603d
000000a0: b1cd ae3d a3ff 38bd 22e0 273d 00e3 f6bb
000000b0: 282b 36bc 34c6 84bd c4f8 823c 9828 3ebc
000000c0: 8444 cb3c de19 593d 2e22 55bd 7eaa 443d
000000d0: e217 4a3d 804b 56bc 357a 87bd 40b0 323c
000000e0: aad1 2e3d 6064 a5bb e6f5 663d ca3b 7d3d
000000f0: 4830 e7bc dca2 93bc cd5d 4abd 7e45 313d
00000100: 49f9 6cbd 2341 3abd d282 6dbd 14e5 df3c
00000110: 09ba 8dbd ff7e 8e3d db6c 8dbd 7872 32bd
00000120: 002e a3b9 6735 963d 9e21 6b3d 9e4a 2bbd
00000130: 00f8 d73c 0eb9 8bbd ab51 88bd 8424 bebc
00000140: 1c4d a33c a694 74bd 1004 a53b 89fe 4ebd
00000150: fc74 dbbc f3a9 aabd 6e06 453d bbb7 853d
00000160: 8ccc 12bd 9498 bebc 801b aaba cc20 4bbd
00000170: 8235 3f3d 300e c6bc 8e50 733d 0d58 0abd
00000180: 2060 1ebb 0ebd 043d 50a4 09bc a061 4cbc
00000190: b6c2 04bd 7358 983d 7a4c 6cbd fea1 2b3d
000001a0: 1abc 193d f69d 233d 8109 953d 609a 9f3b
000001b0: 0f11 0bbd 257c 02bd d809 c4bc fcec db3c
000001c0: 8654 243d 00d0 fdb8 b017 843b 3e86 5a3d
000001d0: 2d3b 843d 1ce0 aabd 8ede 96bd 5e9b 783d
000001e0: a6e5 553d ad75 863d 6cfc 55bd 18bf 543c
000001f0: 2870 693c 4344 32bd 0196 863d ff2d ad3d
00000200: 4947 a83d b990 8f3d f30b a7bd 10fe 703c
00000210: c2f7 593d 179f 873d 17d8 8c3d 9eae 8ebd
00000220: 2d25 a73d 8006 82bc 6b98 8c3d d0dc 243c
00000230: 1d47 9abd e2a1 2a3d 98a1 a9bc f2ae 293d
00000240: 0247 e6bc 754d 8d3d c034 463b 20eb b43c
00000250: e710 6abd b67f 3a3d 5b9d a9bd 886e 753c
00000260: daaf 703d de63 743d 94e1 9f3c 2a2f 693d
00000270: 0a90 91bd 8c8b 96bc 4838 a8bc a214 1dbd
00000280: b8c4 84bc e212 093d 0001 efba 00aa 2dbd
00000290: 827e 383d 29fb a63d 40e8 9dbc 264b 4e3d
000002a0: 208e 61bb 2113 a73d a251 543d 1e7a 7f3d
000002b0: 18b4 213c c218 413d 103c d6bb a0fd 22bc
000002c0: 80a9 12bc 606e 153d 7ea6 8fbd 7f70 833d
000002d0: 2a46 773d a772 863d df37 9dbd 64fd a9bd
000002e0: 916b 893d a830 b23c 9e76 89bd 98f5 353c
000002f0: 1844 5fbd db6c 943d b48a a53c 0706 9fbd
00000300: 38a6 7c3c 0c5e 84bd 5e5b 623d 706a 2bbc
00000310: ff9d 65bd a849 23bd 146b 2bbd 82b2 2fbd
00000320: 7c01 8abc 11ac 833d 4955 a7bd e0b6 e5bb
00000330: 00fb efbb a63d 033d fd4d 983d 8035 c1bc
00000340: ddb8 05bd a0ee 583b 4c5a 31bd fdd0 ab3d
00000350: a90b 32bd 649e 0d3d b2e4 2ebd a581 00bd
00000360: bd80 993d 8c11 69bd 9d12 8b3d 686a 423c
00000370: 713e a0bd b0ed 4bbc 961f 46bd 393a 983d
00000380: 145e 0f3d e100 b23d e0ab b9bb 3c03 a3bc
00000390: 5115 923d c810 b03c f097 ff3b 6b9b 953d
000003a0: 6428 bb3c 010d 11bd d7cf 93bd b916 7bbd
000003b0: b503 93bd a280 b4bd 283c b33c d8ab df3c
000003c0: 7d81 afbd e1db b13d 9101 9e3d b0c6 96bd
000003d0: 469d 503d 6a86 98bd 0001 f8bb 99f6 4dbd
000003e0: 0278 7c3d 04eb ba3c 3f5f b13d d296 89bd
000003f0: 87de 8dbd a2a3 043d 162a 7f3d 46bd 97bd

layer4.bias f4 [8]
0.043040775 -0.042496465 -0.08128782 -0.023148157 0.03963121 -0.05855295 0.04913064 -0.046141367
00000000: 864b 303d c610 2ebd 3b7a a6bd 34a1 bdbc
00000010: 5654 223d 38d5 6fbd 363d 493d bbfe 3cbd

layer1.weight f4 [128, 16]
0.07764992 -0.049816996 -0.07777667 -0.073795974 -0.16649714 0.080109805 -0.12828624 0.005831063
0.019651234 -0.11703414 -0.2248207 0.007287681 -0.18217364 0.22034535 0.17275262 -0.08951661
0.07490128 -0.14770773 -0.20665085 0.052159816 -0.06656018 0.12332228 0.23086032 -0.038938582
-0.020292908 0.043999523 0.21395573 0.06264165 -0.1408441 -0.20109916 0.22542682 -0.012425393
0.105550796 0.2349891 0.19698742 -0.018142372 -0.20871544 -0.008459479 0.029718637 -0.23893699
0.22377771 -0.24548075 -0.10818219 0.123145044 0.08507609 0.047547877 0.19574207 -0.23887673
0.22318655 -0.039542317 -0.058897644 -0.0838387 0.24729568 -0.027451247 -0.124967605 0.24570855
0.2227121 -0.06777984 0.05690825 -0.08890116 -0.24459788 -0.031139612 -0.10731053 -0.0033937395
-0.1284211 0.16551873 0.01090765 0.09773615 -0.15671727 -0.12596849 0.2166788 0.22198841
-0.11176607 -0.18377557 0.12590125 -0.0067667365 0.17645425 -0.20585081 -0.16966957 -0.20052812
-0.10215339 0.034038216 0.1950627 0.04833573 -0.115186185 0.19514734 0.15157598 -0.051799655
0.012306571 0.037629694 0.14362109 -0.11358833 -0.18212506 0.17341694 0.053297758 0.052232474
-0.15012795 -0.050456822 0.011344969 0.12303385 0.19560996 0.12641323 -0.13825524 0.044187933
0.22135237 0.14088741 0.13857901 0.03002274 -0.0023373663 -0.20069036 0.0621832 -0.20026007
-0.04778847 -0.10710049 0.091543674 -0.19373176 0.043900788 0.14770713 -0.1101335 -0.071140796
0.016402543 -0.0049569607 0.21160772 0.16577712 0.04593295 0.2338132 -0.21001965 -0.13463154
-0.23007631 0.10539317 -0.08100435 0.21879137 -0.14838338 -0.10400814 0.0043210685 -0.0701783
-0.12847379 0.21431491 -0.028514683 -0.13137415 -0.055818647 -0.06389052 0.0093280375 -0.21685061
0.23191738 -0.009562105 -0.063357204 0.18770409 0.031129718 0.08081415 -0.23106784 -0.1594119
0.1989181 -0.19528687 -0.18919891 -0.24827632 -0.13565174 0.0077946186 -0.1223335 0.11803213
0.18994528 0.14416274 0.033130437 -0.0012475848 0.036192387 0.21845755 -0.231181 0.24113971
-0.11758655 -0.03401062 0.22436327 0.06583685 -0.05159384 -0.16292769 -0.13697267 0.065455616
0.19618487 -0.15076244 0.11737913 -0.03510472 -0.126825 0.08104536 0.10969177 0.051698655
0.21490937 -0.09671539 0.11634517 -0.17380524 -0.0527972 0.06517726 0.008064419 -0.16037303
0.12130275 0.13797376 -0.12743324 -0.16985962 0.07034254 -0.06148991 0.063530445 0.107994825
0.1240769 -0.23413616 0.16709861 -0.11831942 0.14428079 0.039384305 -0.13747892 0.22598651
0.10609028 0.15529609 -0.19803685 -0.08265445 0.18967777 0.10842466 -0.026087463 0.20771855
0.19350225 0.20691466 -0.1225712 0.14707989 0.22153193 0.16686186 -0.21822563 0.20217347
0.1546314 -0.120314926 -0.016286582 0.15963984 -0.010001719 -0.16624421 -0.22962144 -0.03665352
0.16889772 -0.10972801 -0.11349589 0.17777011 0.029821336 -0.024166673 0.16380411 0.20376033
-0.10165602 0.065802455 0.14837864 0.11938545 0.114356756 -0.14493603 -0.035909235 0.16318816
0.19111335 0.14182204 -0.22557017 0.0095540285 -0.18131119 0.1615895 0.09128785 -0.077132046
00000000: ec06 9f3d e80c 4cbd 6049 9fbd 5822 97bd
00000010: 3a7e 2abe 9c10 a43d 785d 03be 8012 bf3b
00000020: a0fb a03c 98af efbd 6637 66be 80cd ee3b
00000030: ba8b 3abe 36a2 613e 10e6 303e 7c54 b7bd
00000040: d865 993d b240 17be 489c 53be 88a5 553d
00000050: b450 88bd 6490 fc3d a666 6c3e 107e 1fbd
00000060: 503d a6bc d838 343d 3617 5b3e 444a 803d
00000070: 7039 10be f0ec 4dbe 4ad6 663e e093 4bbc
00000080: 042b d83d fca0 703e 12b7 493e 509f 94bc
00000090: 80b9 55be a099 0abc 8074 f33c e6ab 74be
000000a0: fc25 653e 4e5f 7bbe a08e ddbd 7833 fc3d
000000b0: 603c ae3d 90c1 423d 9c70 483e 1a9c 74be
000000c0: 048b 643e 20f7 21bd a83e 71bd a0b3 abbd
000000d0: 143b 7d3e 70e1 e0bc 04ef ffbd 069b 7b3e
000000e0: a40e 643e 28d0 8abd a018 693d d011 b6bd
000000f0: de77 7abe 8018 ffbc a0c5 dbbd 8069 5ebb
00000100: d280 03be be7d 293e 00b6 323c e429 c83d
00000110: 7e7a 20be e2fd 00be 0ce1 5d3e ee50 633e
00000120: 9ce5 e4bd aa2f 3cbe 42ec 003e 80bb ddbb
00000130: 6cb0 343e 8eca 52be dcbd 2dbe 3e57 4dbe
00000140: cc35 d1bd a86b 0b3d 84be 473e b0fb 453d
00000150: bce6 ebbd b4d4 473e bc36 1b3e e02b 54bd
00000160: 80a1 493c 9821 1a3d 6811 133e 00a1 e8bd
00000170: fe7e 3abe 3694 313e c04e 5a3d b8f1 553d
00000180: 24bb 19be d0ab 4ebd 40e0 393c 2cf9 fb3d
00000190: fa4d 483e 7872 013e c892 0dbe 68fe 343d
000001a0: 32aa 623e ca44 103e a8e7 0d3e 40f2 f53c
000001b0: 802e 19bb c681 4dbe d0b3 7e3d fa10 4dbe
000001c0: d8bd 43bd 8057 dbbd 407b bb3d 9e61 46be
000001d0: 50d1 333d 8a40 173e ac8d e1bd 44b2 91bd
000001e0: a05e 863c 006e a2bb b2af 583e 7ac1 293e
000001f0: 3024 3c3d ba6c 6f3e 640f 57be dadc 09be
00000200: 2099 6bbe 60d8 d73d 9ce5 a5bd d80a 603e
00000210: d0f1 17be 3802 d5bd c097 8d3b a4b9 8fbd
00000220: a28e 03be 5e75 5b3e a097 e9bc f286 06be
00000230: 18a2 64bd 08d9 82bd a0d4 183c 160e 5ebe
00000240: c07b 6d3e 60aa 1cbc 6cc1 81bd 8035 403e
00000250: c003 ff3c e481 a53d 0c9d 6cbe e03c 23be
00000260: 30b1 4b3e 48f9 47be 5cbd 41be 263c 7ebe
00000270: 4ae8 0abe 006a ff3b fc89 fabd d4ba f13d
00000280: 0481 423e 669f 133e c8b3 073d 0086 a3ba
00000290: 783e 143d 56b3 5f3e b6ba 6cbe 54ed 763e
000002a0: 38d1 f0bd b84e 0bbd 7cbf 653e 78d5 863d
000002b0: 1054 53bd 84d6 26be 9042 0cbe 980d 863d
000002c0: b0e4 483e 7861 1abe 7864 f03d f8c9 0fbd
000002d0: 6ade 01be 1cfb a53d 14a6 e03d f8c1 533d
000002e0: 3411 5c3e b812 c6bd 6046 ee3d 00fa 31be
000002f0: e041 58bd a87b 853d a020 043c d438 24be
00000300: 946d f83d fe48 0d3e dc7d 02be aeef 2dbe
00000310: c00f 903d d8dc 7bbd 401c 823d 642c dd3d
00000320: 081c fe3d 64c1 6fbe e61b 2b3e 7451 f2bd
00000330: 58be 133e 7051 213d 46c7 0cbe 0269 673e
00000340: dc45 d93d f005 1f3e 2cca 4abe bc46 a9bd
00000350: e43a 423e c00d de3d 60b5 d5bc 2cb4 543e
00000360: 7425 463e 70e1 533e 9c06 fbbd 1c9c 163e
00000370: 44d9 623e d6dd 2a3e 8a76 5fbe 9006 4f3e
00000380: b257 1e3e ac67 f6bd 706b 85bc a078 233e
00000390: 40de 23bc ec3b 2abe e221 6bbe 0022 16bd
000003a0: 86f3 2c3e 14b9 e0bd 8870 e8bd 5e09 363e
000003b0: e04b f43c 30f9 c5bc 44bc 273e 8ca6 503e
000003c0: 0831 d0bd 70c3 863d 92f0 173e 5c80 f43d
000003d0: e033 ea3d 1c6a 14be 9015 13bd cc1a 273e
000003e0: 38b3 433e cc39 113e defb 66be 8088 1c3c
000003f0: a4a9 39be b877 253e 20f5 ba3d 68f7 9dbd

layer1.bias f4 [128]
-0.041658312 0.06377149 0.10980913 -0.0025668144 -0.17110789 0.08991626 0.18122703 0.06658274
-0.08459747 -0.15116104 -0.08323473 0.2260159 -0.10731265 -0.18828976 -0.075470656 0.11895138
-0.13627607 -0.16330555 -0.106973976 -0.050383925 0.12527633 0.23684785 0.18621019 -0.062008142
0.17739543 0.24191144 -0.12429091 -0.0150204 0.15617085 -0.11412808 -0.19422868 0.13522896
0.07720637 -0.102344126 -0.030798018 0.1826052 -0.028293818 0.08622494 -0.23126695 0.22190443
0.2348535 0.054986507 -0.06993407 -0.10338366 0.15246803 0.12199202 -0.07289189 -0.07970852
-0.08776581 0.13434362 -0.064561516 -0.07910985 0.048623234 -0.24844462 -0.13895899 0.10546315
0.15112904 0.10568023 0.2141 0.14768133 -0.08346754 0.15258059 0.24542683 -0.17067045
0.22812045 0.19169205 0.07260424 0.20929307 -0.15775403 -0.17519513 0.20227635 -0.091637224
0.22389391 -0.21841714 0.006492436 0.07257709 0.032726884 -0.042755812 0.18093863 -0.0737406
-0.13262013 -0.19729236 -0.2253052 0.08245736 -0.22026011 -0.050806254 0.17915702 -0.15237078
-0.20823401 -0.0075517 -0.16359118 0.14559531 0.23341694 -0.017971307 0.20928657 -0.0017344952
0.23986968 -0.19258311 -0.15361902 0.18994895 0.09280291 0.10909405 0.18582186 0.12583429
-0.24345028 -0.23392066 0.05771017 0.020542353 -0.096797496 0.21094275 -0.025648117 -0.1165854
-0.1430333 0.24138677 -0.10181713 -0.028780371 0.16856906 -0.07534373 0.23799092 -0.07086158
-0.21763653 0.008367151 -0.11610964 -0.037574828 -0.09681922 -0.2034384 0.09270814 0.17586657
00000000: e8a1 2abd a09a 823d 9ce3 e03d 0038 28bb
00000010: e836 2fbe 0426 b83d 9493 393e 885c 883d
00000020: 7041 adbd f6c9 1abe f876 aabd b670 673e
00000030: bcc6 dbbd 08cf 40be 5c90 9abd c89c f33d
00000040: f48b 0bbe 9239 27be 2c15 dbbd 605f 4ebd
00000050: 7048 003e 3e88 723e e2ad 3e3e 40fc 7dbd
00000060: 26a7 353e a2b7 773e 3c8c febd 2018 76bc
00000070: 40eb 1f3e fcbb e9bd e2e3 46be 7679 0a3e
00000080: 601e 9e3d cc99 d1bd 204c fcbc dcfc 3a3e
00000090: 70c8 e7bc b496 b03d 3ed1 6cbe ea3a 633e
000000a0: 707d 703e 8839 613d 9839 8fbd d0ba d3bd
000000b0: 9420 1c3e f4d6 f93d 5848 95bd 383e a3bd
000000c0: 90be b3bd 6091 093e d438 84bd 5804 a2bd
000000d0: 2829 473d 4468 7ebe 444b 0ebe 10fd d73d
000000e0: 92c1 1a3e e06e d83d 083d 5b3e c639 173e
000000f0: 08f1 aabd 163e 1c3e 2c51 7b3e 3cc4 2ebe
00000100: 6898 693e ec4a 443e 88b1 943d ec50 563e
00000110: 468a 21be 5a66 33be 8821 4f3e 4cac bbbd
00000120: 7244 653e bea8 5fbe 80be d43b 4ca3 943d
00000130: a00c 063d b820 2fbd fa47 393e 5005 97bd
00000140: 92cd 07be 0207 4abe 68b6 66be 68df a83d
00000150: de8b 61be 381a 50bd f074 373e 1607 1cbe
00000160: 4c3b 55be 4074 f7bb 7284 27be f016 153e
00000170: da04 6f3e 9038 93bc 384f 563e 0058 e3ba
00000180: 66a0 753e 8234 45be 4e4e 1dbe fa81 423e
00000190: 740f be3d b46c df3d 1648 3e3e b4da 003e
000001a0: 084b 79be e688 6fbe 8061 6c3d 7048 a83c
000001b0: c43d c6bd 6001 583e 001c d2bc 54c4 eebd
000001c0: 5277 12be 182e 773e 8085 d0bd d0c4 ebbc
000001d0: 5e9d 2c3e d04d 9abd e4b3 733e e01f 91bd
000001e0: 1cdc 5ebe 6016 093c e4ca edbd 10e8 19bd
000001f0: 2849 c6bd 2852 50be c4dd bd3d 5e16 343e
