source/dqn_experiment/players/p1_v2_1.pth (torch, 740075 bytes, 34 tensors)

layer1.weight f4 [128, 22]
000000 a5 17 67 ba bc c1 38 be 94 44 3b be 2d 04 61 bd
       -0.0008815474 -0.18042654 -0.18287879 -0.054935623
000010 6f 1a a8 3c ec b0 7e 3c 56 c9 71 3d 0f 14 7e bd
       0.020520417 0.015545111 0.0590299 -0.062030848
000020 c3 77 67 bd d7 ce 9e 3d 41 68 08 bd 59 ab 49 be
       -0.056510698 0.07754295 -0.03330255 -0.1969427
000030 0b f3 4f 3e d7 8a 23 be 12 ed 5e ba 5b 69 d6 3c
       0.20307557 -0.15970932 -0.0008503954 0.026173284
000040 da 9d 1a 3e 3e c1 2d be d1 66 82 3d b9 1b 49 bd
       0.15099278 -0.16968247 0.06367267 -0.049098704
000050 07 3e de bc 3c a4 39 3e 8b 3d 99 bd 1f 4a 37 3d
       -0.027129186 0.18129057 -0.074824415 0.04474842
000060 b0 56 35 be 0b 00 55 3e 6e 16 56 3d 81 20 5c 3e
       -0.1770885 0.20800798 0.052267484 0.21496774
000070 60 de 74 3e e7 00 b4 3d 3f 49 cb bd 0e 37 93 3d
       0.23912954 0.087892346 -0.0992608 0.07188235
000080 80 e9 26 3e b3 2e 19 bd 2c 3b db 3d 62 8d 3e be
       0.1630001 -0.03739805 0.107046455 -0.18608621
000090 77 8b c8 bd 4d f6 82 bd d2 33 9b bb 60 1f d4 bd
       -0.09792226 -0.063946344 -0.004736402 -0.10357547
0000a0 af ba f0 3d 35 37 3c bd 56 d1 2f 3d 56 a5 1f be
       0.11754357 -0.045951087 0.042924248 -0.15590414
0000b0 ce 60 0d 3e 7a 4b 1f 3e 5e 34 81 bd 08 22 4b bd
       0.1380646 0.15556136 -0.063088164 -0.049593
0000c0 5a f5 69 3d 2f 97 f3 3c 4e 32 3b bd 90 43 a1 3d
       0.05711875 0.029735176 -0.04570227 0.07874215
0000d0 4c 1e 3f 3e 74 4b 3c 3e 50 70 5e 3e fe e3 dc bd
       0.18663901 0.18388158 0.21722531 -0.107856736
0000e0 e5 d3 79 3d e1 86 c9 bd 6a 9b a1 3d f5 6b ff bd
       0.060993094 -0.09840179 0.07890971 -0.12471763
0000f0 b4 8c b2 bd ae 2b c7 bd e1 05 50 3c 4d 6e 00 3e
       -0.08718243 -0.09725128 0.012696714 0.12542076
000100 b8 bc b7 3d 29 46 23 be 6d 52 1a 3d d1 96 e1 bd
       0.08971542 -0.15944733 0.037676264 -0.11015094
000110 6e 62 90 bd 43 51 4d 3e db ee 1f be ab d0 9a bd
       -0.07050024 0.2005053 -0.1561846 -0.075593315
000120 87 b4 1c be 41 03 7a 3e 87 2e 2f 3e 39 81 45 3e
       -0.1530324 0.24415304 0.17107593 0.19287576
000130 06 27 26 bd a6 0a 63 bd 95 4c 55 3c dc 05 3a bc
       -0.04056456 -0.055430077 0.013018747 -0.011353936
000140 25 88 c9 bd ef f2 48 be 49 3d d2 bd b9 d7 97 3d
       -0.09840421 -0.19623922 -0.102655955 0.07414193
000150 e7 aa d8 3d 70 02 16 be fa 81 31 be 66 8d 1a be
       0.10579472 -0.14649367 -0.17334738 -0.15093002
000160 d5 9b 88 bd 8d 11 32 3e 4d 53 a8 bd d3 b4 a2 bc
       -0.066703476 0.17389508 -0.08219013 -0.019861614
000170 05 42 87 bd 1c 45 17 bc 56 4e ad be 80 b3 80 3d
       -0.06604389 -0.009232786 -0.33848828 0.06284237
000180 df a7 78 3d d6 93 92 38 80 1f af 3d 43 fb 1a bd
       0.06070697 6.989359e-05 0.0855093 -0.037837278
000190 a4 94 9a 3d c1 86 a8 3d 45 cd 8c bc 92 00 de 3d
       0.07547882 0.08228827 -0.017187724 0.108399525
0001a0 f1 e3 ff 3c ea 11 f8 bd 82 dd 06 be bd a9 35 be
       0.03123662 -0.12112792 -0.13170436 -0.17740531
0001b0 cf d9 01 bd e6 9b 3c 3e 65 09 a7 bd 1a 6b 15 3d
       -0.03170186 0.18418846 -0.08156089 0.036479093
0001c0 7e a3 43 bd 3a 96 8a bc 74 b6 a7 3d d7 48 0c be
       -0.04776334 -0.016917337 0.08189097 -0.13699661
0001d0 8d b4 00 3e ee 48 eb 3d db 2d 68 3d eb eb b1 bd
       0.12568875 0.114885196 0.056684356 -0.08687576
0001e0 90 8e f6 bd 40 af ac 3c 0a 5f 15 3e 01 47 27 3e
       -0.120389104 0.02107966 0.14587036 0.1633568
0001f0 db 5d 15 be b2 8d d2 bd f1 66 25 3e 15 33 5e 3e
       -0.14586584 -0.102809325 0.1615255 0.21699174
000200 e9 61 ec 3d 8e 89 8e bc 59 91 9d 3d 3d 97 34 bd
       0.115421124 -0.017399576 0.076937385 -0.044089545
000210 3c 43 2a be 51 51 52 be 94 e3 41 3b 57 2f cd 3d
       -0.1662721 -0.20538832 0.002958511 0.10018795
000220 50 39 ad 3c 9b 06 a8 bc b8 53 42 be 69 53 be 3d
       0.021145493 -0.020510962 -0.18977249 0.09293253
000230 b0 88 0a be 84 89 2b 3e 40 f7 cc bd 2b da b0 bd
       -0.13528705 0.16751677 -0.10008097 -0.08635362
000240 81 4a 86 bd b8 80 58 bd d0 60 1d 3d cf 80 aa 3d
       -0.06557179 -0.05285713 0.038422406 0.083253495
000250 38 ee 48 3d 8b 31 7c 3d c2 79 18 be 81 fd 85 bd
       0.049055308 0.061570685 -0.14890197 -0.06542493
000260 2b de 1c be 63 4b 8c 3c 6d 8c 76 bc 96 b4 a6 bd
       -0.15319125 0.017125791 -0.015048129 -0.08139913
000270 8d cf 54 3e b3 90 39 bd e5 cc 66 3d 3f b2 52 3e
       0.207823 -0.04530401 0.056347746 0.20575808
000280 0b 9a 93 3e e3 cf ad bd 40 14 1c 3d 58 77 de bd
       0.28828463 -0.08486917 0.03810525 -0.10862607
000290 3b 10 1d be 83 d1 3a 3e ac 36 be bc 27 fb c1 bd
       -0.15338223 0.18243985 -0.023219429 -0.09471732
0002a0 20 36 f4 bc 7b 7d 9b bd c0 df 34 bc 70 6c f7 3d
       -0.029810965 -0.07592293 -0.011039674 0.1208123
0002b0 06 5f a5 bd a3 11 91 3d 1e bc 08 be 10 e4 1b be
       -0.08074765 0.07083442 -0.13353011 -0.15223718
0002c0 23 42 32 3d 89 4f 21 bd ad 06 40 3e 77 6f f1 bd
       0.043520104 -0.03938249 0.18752547 -0.11788838
0002d0 0a 20 14 bd 4c a3 80 bd 81 aa 68 bd b0 01 20 be
       -0.036163367 -0.062811464 -0.05680323 -0.15625644
0002e0 fb 84 ee 3d 84 4e 64 bd d9 dd 1c be 15 f5 ae 3d
       0.11646458 -0.05573894 -0.15319003 0.085428394
0002f0 42 b1 73 bc 6b d7 08 3d e9 a2 b2 3d b5 1f 1a 3d
       -0.0148738045 0.033408564 0.08722479 0.037627894
000300 d0 cd 96 bd 7f 8f 89 3e f5 b1 7c 3d 5e 04 66 bd
       -0.07363474 0.2686729 0.06169315 -0.05615651
000310 0e f1 5f be 25 9e 0f be cc 5f da 3d 84 ca 41 3e
       -0.21869299 -0.14025171 0.10662803 0.1892491
000320 5c 23 54 3d 52 55 b4 3b f9 97 24 3e c2 d9 82 bd
       0.051791534 0.005503335 0.16073598 -0.0638919
000330 b5 a2 58 be 16 96 b8 bc d5 f3 ae 3d 6f d3 0f bd
       -0.21155818 -0.022532504 0.08542601 -0.03511375
000340 d2 3d c5 bb fd bf a8 3d 4c 6e 21 3d 5a 2e 0b be
       -0.0060193324 0.08239744 0.039411828 -0.135919
000350 9c dd 22 be bd 2e c4 3d b0 81 50 bc da b9 67 be
       -0.1590485 0.09579227 -0.012726232 -0.2262949
000360 aa 08 3e 3e 76 f4 0c 3d ae 3a b3 bd 8f 19 37 3e
       0.18557993 0.034412824 -0.08751427 0.17880844
000370 31 6f d2 bd 47 da 1f 3e d9 72 c4 bd fc 33 30 be
       -0.10275114 0.1561061 -0.09592218 -0.1720733
000380 98 c9 1e 3e af a5 8b bd 12 8d 0f 3e f9 be d6 3d
       0.1550659 -0.06818711 0.14018658 0.10485644
000390 69 0f fb 3d 14 f4 81 3d 42 f1 f1 bd ad 03 72 3d
       0.12258799 0.06345382 -0.118135944 0.059085537
0003a0 e5 1c 25 be 11 57 a9 3d 90 48 41 bd 49 d3 32 3d
       -0.16124304 0.0826856 -0.04718834 0.04365853
0003b0 29 73 f0 3c 63 5f 5c 3e 64 c0 8c 3b 29 8a c0 bc
       0.029351788 0.21520762 0.0042953957 -0.02350338
0003c0 92 df 16 be 60 b6 59 bc 8d 79 87 3d 48 e2 87 bc
       -0.14733723 -0.0132881105 0.06614981 -0.016587391
0003d0 e8 80 27 be 94 4d ab bd 82 c9 23 be 70 79 09 bd
       -0.16357768 -0.08364406 -0.15994838 -0.033563077
0003e0 fb a1 87 bd 35 55 46 3d 8c de 33 3e fe b6 1b 3e
       -0.06622692 0.048421104 0.17565364 0.15206525
0003f0 86 b2 dd 3d 97 b0 b5 3d 6e c3 fe bd 09 61 2e be
       0.10825066 0.088715725 -0.12439619 -0.17029203

layer1.bias f4 [128]
000000 78 26 5d 3e df 57 b9 bd 5f 98 e9 bb ef ab 87 bc
       0.21596706 -0.09049963 -0.0071287598 -0.016561477
000010 67 d3 a1 bd 1d 66 4d be 38 0a 81 3c e4 e1 46 3e
       -0.0790165 -0.20058484 0.015751943 0.19422108
000020 01 d2 35 be a4 c5 f5 bd f1 f7 e4 3d ab ca 75 3b
       -0.17755891 -0.120005876 0.111801036 0.0037504833
000030 7d 31 43 be 2b 74 d3 bc 66 bc 0c 3e f0 59 23 3e
       -0.19061847 -0.02581223 0.13743743 0.15952277
000040 77 a9 5f be 52 7c 00 3e bf d8 28 3e aa f6 29 be
       -0.2184199 0.12547424 0.16488932 -0.16598001
000050 ae 96 6f 3d 95 41 02 3e fc c1 d6 bd 2c ca 12 3d
       0.05849331 0.1272033 -0.10486218 0.035837337
000060 45 9d 6a 3e 81 b7 69 bd 8b 72 41 3d 80 23 0d 3c
       0.22911556 -0.05705977 0.047228377 0.008614421
000070 43 2c 10 3d 7f d3 bc 3d 73 3d e2 3d fc f1 ff 3c
       0.03519846 0.09220027 0.11046877 0.031243317
000080 8e cf 9f 3d 2a 4c ee 3d 4b 68 b0 bd 91 58 0a 3c
       0.0780326 0.11635621 -0.08613642 0.008443967
000090 69 38 4c 3e 48 f1 0a be cd 5f 16 be b1 b7 dc bd
       0.19943394 -0.13568604 -0.14684983 -0.10777224
0000a0 0b 30 dc bd 94 a1 0a be 5c bb 8c ba e3 42 10 3e
       -0.10751351 -0.135382 -0.001073699 0.14088015
0000b0 c0 fe 14 3d bb a9 fc bd c3 99 3b 3d 47 54 89 bd
       0.03637576 -0.12337061 0.045800935 -0.06705528
0000c0 6d 9f 4f be 98 5f 8e bd 50 09 07 3a 7f 11 1e 3e
       -0.2027566 -0.06951827 0.0005151229 0.15436362
0000d0 41 73 4f 3c 1e 50 8c be d6 33 d9 bc f1 26 09 3e
       0.012661756 -0.27404875 -0.026513975 0.13393761
0000e0 4d af 5b bd f7 87 1c 3e a5 ec b7 3d 5b 94 58 be
       -0.053633977 0.15286241 0.08980683 -0.21150343
0000f0 2c 6b 7d bd b0 fd 45 3e de 93 a5 3d f0 72 86 3d
       -0.061869785 0.19335055 0.08084844 0.06564891
000100 15 de c5 3c 28 2c ab bc d7 76 20 bd 2d 9e da bd
       0.024153749 -0.020895079 -0.039175835 -0.10674701
000110 3b 3c 1e 3e 76 28 ef bd 81 8b da bd 9b 56 35 bd
       0.15452664 -0.11677639 -0.106711395 -0.044272047
000120 6b 59 3a be 4a 45 dc 3d 8c f5 4a be f2 ac b4 bd
       -0.18198173 0.10755403 -0.19820231 -0.08822049
000130 3b 48 e1 3d b5 ce 2b 3d 86 41 47 bd db bd 5d 3d
       0.11000105 0.041945178 -0.048646472 0.05413614
000140 35 d4 34 be f6 ab 84 3d 50 83 c9 bd 87 9c df 3d
       -0.17659076 0.064781114 -0.09839499 0.10918527
000150 ea ba 83 bc b4 3c dd 3c 4e 7b a3 bd 7f fa e8 bd
       -0.016080339 0.027006485 -0.07982503 -0.11375903
000160 b8 01 35 be dc 54 f4 3c 61 4f b4 bd 6c 95 05 3e
       -0.17676437 0.02982562 -0.08804203 0.13045281
000170 34 0a 8e 38 ea 6b 0d be 4c 66 12 3e d8 72 31 3e
       6.772988e-05 -0.13810697 0.14296836 0.17328966
000180 74 3c ec 3b 93 5b 3f 3e 67 b4 33 3e b7 5e 23 3d
       0.007209355 0.18687277 0.17549287 0.03988525
000190 21 50 71 3d 5f 05 e4 bd da ee 69 3e 9f 51 dd 3d
       0.058914308 -0.11133837 0.22845021 0.108065836
0001a0 2e 46 a1 bd 1d ac 54 bd 83 38 f4 bd 51 3d 3c 3e
       -0.07874714 -0.051921953 -0.11924841 0.18382765
0001b0 d2 51 15 be 8b 1c d8 bc 68 c3 38 3e c0 1b 35 3e
       -0.14581993 -0.026380798 0.18043292 0.17686367
0001c0 0d 71 1c be 8c da 37 3e f0 fc cc 3c 14 6e 77 bd
       -0.152775 0.17954463 0.025022954 -0.060407713
0001d0 55 48 45 3e c1 6a fe 3d cd 42 17 bd c4 cc e7 bd
       0.19265874 0.124227054 -0.03692894 -0.11318353
0001e0 e9 3b 00 3d b6 9a 6c be b8 1a 08 bc 61 2c 29 bd
       0.031307135 -0.23105893 -0.0083071515 -0.04130209
0001f0 01 b6 9c bc 75 95 8a bd 55 c9 83 bd d0 86 64 3d
       -0.019129755 -0.06766788 -0.064348854 0.05579263

layer2.weight f4 [128, 128]
000000 86 fa 46 3d 86 97 7c bd 1f 96 7c 3d 57 50 06 3d
       0.04857876 -0.06166794 0.061666604 0.03279146
000010 71 e9 e0 3c 00 57 64 bc 9c 0d 90 3d c3 c2 ab 3d
       0.027455064 -0.013936758 0.07033846 0.08386757
000020 4b fc 57 bd e4 d7 02 bd fd 9e 8b bc 16 c9 d2 bc
       -0.05273084 -0.03194417 -0.017043585 -0.02573065
000030 b4 89 9c bd d8 2d 54 bd 5f 14 82 bd 37 c1 db 3b
       -0.07643452 -0.051801533 -0.06351542 0.0067063826
000040 07 d0 84 bd 04 3b 73 bd 2e 12 9a 3d d8 8b 67 3d
       -0.064849906 -0.059382454 0.07522999 0.05652985
000050 a3 54 24 bd a4 1c c7 bc 9c 60 9b 3d 6f 86 78 bd
       -0.04011978 -0.02430565 0.07586786 -0.06067508
000060 d8 e5 7f 3c 9a ac c9 3c 7d 95 20 3d 2e 91 27 bd
       0.015618764 0.024618436 0.039205063 -0.04090994
000070 2e 6f 2f bd 78 39 bd 3c 42 3a 91 bd ed 2e 8b 3d
       -0.04283064 0.023098692 -0.0709119 0.0679606
000080 c1 87 2c 3c 5e e2 76 bd b8 62 c1 bb c8 12 ef bc
       0.010530413 -0.060274474 -0.005901661 -0.02918376
000090 aa 68 af bd 13 bc f9 3c 9c b0 85 bc 9d b1 2c bd
       -0.08564885 0.030485189 -0.016319565 -0.042161573
0000a0 fc b0 2a bd c3 a8 58 bd 19 a4 9c bd 25 87 99 bd
       -0.04167269 -0.05289532 -0.07648487 -0.0749648
0000b0 d5 31 39 bd f8 97 a9 3d ab 0a d1 bc e7 18 ca 3c
       -0.04521354 0.08280939 -0.025517782 0.024670077
0000c0 50 40 41 bd fc 4e a8 3d 9f f9 9d bd 71 d3 44 3d
       -0.047180474 0.0821819 -0.07713627 0.04805321
0000d0 be 54 94 3d 37 fb af bd fa cc 23 bd 89 72 74 3d
       0.07242726 -0.08592837 -0.039990403 0.05967954
0000e0 eb 93 9d bd bc 52 a6 3d 58 39 a4 3a e4 e0 98 bd
       -0.07694229 0.08121249 0.0012529297 -0.074647695
0000f0 3b 42 4c 3d 56 78 f7 bc 6b 39 ad bc 7a cb 70 bd
       0.04986785 -0.030208748 -0.021145543 -0.0587878
000100 a6 a5 8f 3d 63 43 ee 3c c6 02 69 3c 20 ef 9f bd
       0.07014017 0.029084867 0.014221853 -0.07809281
000110 95 f4 a7 bd 44 34 86 3d 83 82 7b bd f1 b5 9c 3d
       -0.08200947 0.065529376 -0.061403763 0.0765189
000120 d8 bf 64 bd 3e 31 13 3d 98 a7 47 3c b5 4c 22 bc
       -0.05584702 0.035935633 0.012185954 -0.009905984
000130 81 45 4e 3d ce ac 5a 3d fc a8 82 bd 0e e9 9b bd
       0.050359253 0.053387456 -0.063798875 -0.07612811
000140 67 ab 98 3d 1b 41 19 bb 02 ec 1a 3d eb 7b 9a bd
       0.074545674 -0.0023384753 0.03782273 -0.07543167
000150 f8 94 db bc 5d 3b 1b 3d 98 aa 21 bd cd 14 54 bc
       -0.026804432 0.03789841 -0.03946933 -0.012944412
000160 38 88 a8 3d ee 33 78 3c 91 ab 5f bd c8 a7 8e 3d
       0.08229107 0.0151491 -0.054606978 0.069655955
000170 a8 31 9d 3c fb 98 96 bc c1 2a 80 bb 35 0a 86 3d
       0.019188717 -0.018383494 -0.0039113467 0.065449156
000180 c2 82 3d 3d 50 15 2e bb 30 ba fd 3b 7b e9 72 3d
       0.04626728 -0.0026562996 0.0077431425 0.059304696
000190 ac 07 3c bd 8d ba a6 bd db f1 a4 bd e6 d8 c3 bc
       -0.045905754 -0.081410505 -0.08053943 -0.023907136
0001a0 51 fb 60 bb 2f 32 8d 3d 83 68 b8 3c ac 44 a4 3d
       -0.0034329484 0.068943374 0.022510773 0.080209106
0001b0 1c fd 97 3c c2 29 42 bd 8b 4f 9a bd 1b bd 81 bd
       0.01855331 -0.047403105 -0.07534703 -0.06334897
0001c0 20 b9 89 3c e0 c5 8b 3c 0a 0e 9c 3d 21 54 ac bd
       0.016811907 0.017062128 0.07619865 -0.08414484
0001d0 be 3d ab 3d a0 f4 92 3c fe 41 9b bd bd f3 8f 3b
       0.08361386 0.017938912 -0.075809464 0.0043930695
0001e0 69 df 96 bd 77 ba ab bd 70 92 df 3c 02 58 13 3d
       -0.07366831 -0.08385175 0.027291507 0.035972603
0001f0 e9 ad 68 bd 59 7e 18 3b e6 92 7d 3d 51 7a 96 3d
       -0.05680648 0.0023268668 0.06190767 0.07347549
000200 06 ec e3 3a ac f7 e6 bd 65 af 94 3c b5 17 cb bb
       0.0017389066 -0.112777084 0.01815004 -0.0061978945
000210 a7 2b 87 3d 42 8c 42 bd 1f 6e 8d 3d 0e e4 3a 3a
       0.06600123 -0.04749704 0.069057696 0.000712932
000220 ff 5a f4 bb 09 28 3e bd 8e 14 ac bd ac 78 4d 3d
       -0.0074571366 -0.0464249 -0.08402358 0.05016391
000230 ef 7d 15 bd ca 33 dd 3c e7 3d 11 3d 38 fe cd bc
       -0.036497053 0.027002234 0.035459425 -0.025145635
000240 ea d6 5a 3d 5e 75 a2 bc 66 85 06 bc e3 d6 3a 3d
       0.053427614 -0.019831356 -0.008210516 0.04561509
000250 d4 92 93 bd 72 f3 1d bd 10 cb 11 3d 58 3a a4 bd
       -0.072057396 -0.038562246 0.035594046 -0.08018941
000260 bc 3e 71 bd aa 95 06 bd 04 be 42 bd 07 3b ab 3d
       -0.05889772 -0.032857575 -0.047544494 0.08360868
000270 1e df 8c bd a9 c9 21 bd 6f 80 a2 bc 89 12 7a bd
       -0.06878494 -0.03949896 -0.019836633 -0.061052833
000280 21 21 37 3d d3 df ea bc 72 0e 30 3d aa 25 0c bc
       0.04470933 -0.02867118 0.042982526 -0.008553902
000290 e2 b8 57 bb 1e f7 eb bc f5 a2 31 bd 38 3f 9a bd
       -0.0032916595 -0.028804358 -0.0433683 -0.07531589
0002a0 a8 14 7f bd ed 93 82 3b fd 9d 8a bd fa d3 8c 3d
       -0.06227556 0.0039849193 -0.06768415 0.06876369
0002b0 c1 b3 9c 3d 60 73 7d ba 22 8e 2e 3c d5 69 cf bc
       0.07651473 -0.00096683763 0.010654004 -0.02531902
0002c0 cf c2 46 bb 05 ec 91 3d e0 ea ab bd b7 83 53 3c
       -0.0030328517 0.07125095 -0.08394408 0.012909821
0002d0 60 b0 b8 bd cd 19 f9 3c 59 b3 1b 3d 6e b8 42 bd
       -0.09018016 0.03040781 0.038012836 -0.047539167
0002e0 fb ee 81 bd 21 d4 61 3d ce 78 4a bd 4b 13 f4 3c
       -0.0634441 0.055133943 -0.049431615 0.029794356
0002f0 74 2a b5 3c 8f 86 1a 3d 67 b5 08 3d c2 33 02 bc
       0.02211497 0.03772598 0.033376124 -0.00794691
000300 9f 95 7e 3c d1 e3 c7 bb d0 04 4e bc 59 29 af 3d
       0.015538602 -0.006100156 -0.01257439 0.08552808
000310 59 d5 c3 3c db af 92 3d e9 50 b9 bd dc 41 cd 3a
       0.023905443 0.07162448 -0.090486355 0.0015659886
000320 a8 87 84 3d f6 35 ac 3d 4d e6 ad bd f4 9b 27 bd
       0.06471187 0.0840873 -0.08491192 -0.040920213
000330 1b e3 73 3d 2e ea d4 3c 6e 23 a5 3d 2b d6 40 3a
       0.059542757 0.025990572 0.08063398 0.0007356132
000340 61 00 97 3d 8b 65 b0 bd f4 fc 82 3d db 07 9a bd
       0.07373119 -0.08613118 0.06395903 -0.075210296
000350 98 5f 02 bd 38 87 08 bc 0b 8f 3f 3d 08 76 25 3d
       -0.031829447 -0.00833302 0.046767276 0.040395766
000360 47 8b 41 bc a1 f5 f2 3c 7f 5a 90 3c 8a cd ca 3c
       -0.011812991 0.02965814 0.017621277 0.024756212
000370 e1 20 03 3b b5 b2 10 bd fa 48 c9 3a df b2 fd bc
       0.002000861 -0.03532668 0.0015356832 -0.030969081
000380 31 c0 3e 3d 2e 7b 51 3d 8e 21 d0 bb b2 a4 35 bd
       0.046570007 0.051142864 -0.0063516563 -0.04434652
000390 f7 96 36 bd 4d 9b cc bd cc 33 bd bc 57 2d 52 3d
       -0.044577565 -0.09990559 -0.023095988 0.05131277
0003a0 a6 c5 39 3d 56 4d 25 3d e0 d3 51 3d af ae c1 3d
       0.045354508 0.040356956 0.05122745 0.094571464
0003b0 f9 3e 95 bc ad 85 b1 bd 51 94 70 3d 0e 6c 09 3d
       -0.018218504 -0.08668075 0.058735196 0.033550315
0003c0 e5 f5 02 3d de c6 a2 3d 50 06 96 3d 8b e2 55 3d
       0.031972785 0.07948087 0.07325423 0.052218
0003d0 9d da 09 3d 0c 8c cf 3c de 2c 39 bd 5e 11 ad 3a
       0.03365575 0.025335334 -0.045208804 0.0013204028
0003e0 db e0 79 bd 68 50 18 bd ee 9f 8d 3d 86 89 f3 bd
       -0.061005455 -0.037186056 0.0691527 -0.11891465
0003f0 10 95 74 bd 77 f6 8c bd ab 57 91 3d 9c af 8f bd
       -0.05971247 -0.06882947 0.070967995 -0.07015917

layer2.bias f4 [128]
000000 13 5d a4 3d 77 9f 07 bd bc 88 01 3d 3f 5a 06 3c
       0.08025565 -0.033111062 0.03162454 0.008200227
000010 db 9a af bc 88 70 0c bd 49 f9 b4 bd 45 ce 88 3d
       -0.021436146 -0.034287006 -0.0883661 0.06679968
000020 28 d5 38 bd 50 89 96 3b 91 a0 a5 3c e9 17 07 bd
       -0.045125157 0.0045940056 0.020218166 -0.032981787
000030 fd 25 78 bd 5a 2d b5 bd 36 23 b3 3d 8d 32 d1 ba
       -0.060583103 -0.08846541 0.0874695 -0.00159605
000040 f5 8c a5 bd ee 9d f9 bc 93 82 4e 3d 7e c8 c7 bc
       -0.08083526 -0.030470815 0.050417494 -0.024387594
000050 77 c3 24 3d cc d9 57 bd 24 9d 93 3c 35 4a 45 bd
       0.040225472 -0.05269794 0.018019266 -0.048166472
000060 f9 49 3a 3d 90 f8 39 bd 37 d0 9d bd 85 67 87 3b
       0.045480702 -0.045403063 -0.077057295 0.0041322135
000070 b4 df 84 bc 0b 73 2d 3d 69 5f 9a 3d 47 47 42 3d
       -0.016219951 0.04234604 0.07537729 0.047431257
000080 43 cc 9a bd d4 e4 73 3d e5 35 97 3d c2 0d 77 3c
       -0.07558491 0.0595444 0.073833264 0.015078964
000090 a3 2e a2 3d b6 ee 76 3d 73 4c a2 bd 6e 7a 7d bd
       0.079190515 0.060286246 -0.07924738 -0.061884336
0000a0 d2 a5 17 3c 02 95 86 3d 44 65 49 3d 20 e7 34 3d
       0.009255843 0.0657139 0.04916884 0.04416573
0000b0 ca 4a c3 bd 0c 15 c0 bd c6 4a 7c 3d 6c 70 9f 3d
       -0.09535749 -0.093790144 0.061594747 0.07785115
0000c0 33 26 14 bb 77 4a 18 3c b2 89 a4 bd ba f8 48 bd
       -0.0022605776 0.009295098 -0.08034076 -0.04906533
0000d0 ce 01 03 3c 09 84 af 3c dc 6e fc bc d0 1a 94 bd
       0.007996036 0.021425264 -0.03081458 -0.072316766
0000e0 5f e6 2d 3d 06 16 69 bd 43 7f 65 3b 45 c3 bc bc
       0.042456027 -0.05690577 0.003501848 -0.02304233
0000f0 80 72 f1 bc 5e 19 8f 3d 01 a1 98 bd cc d8 47 3d
       -0.029473543 0.0698726 -0.07452584 0.048790738
000100 39 b7 a5 3c b7 4f 8d 3d 14 82 ab bd 76 8e 66 bd
       0.020228969 0.0689997 -0.0837442 -0.056288205
000110 dc 38 9d 3c 1c fb d5 bc c8 de c0 bd d0 b0 ba bd
       0.019192152 -0.026120715 -0.09417492 -0.091157556
000120 4c cd 24 3d 92 6c 6a 3c 8e 2a b2 bc 4f b3 d4 3c
       0.04023485 0.014308112 -0.021748807 0.025964407
000130 4b e9 98 3c 56 43 a3 bd b5 a3 e6 bc 44 63 80 bd
       0.01866593 -0.07971828 -0.028154233 -0.062689334
000140 cf 2a 6a 3d a8 f9 8a 3d 63 15 51 3d 85 b4 a6 bd
       0.05716973 0.067858994 0.051045787 -0.081399
000150 76 a3 7c 3c f4 49 e3 3b 7f 87 bf bc e2 4b fb 3c
       0.0154198315 0.006936306 -0.02338004 0.030675832
000160 3b ca b2 bc 48 11 44 bc c1 44 88 3d 59 70 01 3d
       -0.021824947 -0.011967011 0.06653739 0.031601284
000170 d0 83 e5 3c 51 35 62 3d 2a c8 82 bd 0a 99 b5 3d
       0.028016955 0.055226628 -0.063858345 0.088670805
000180 a7 02 ac bd 21 87 83 3c 9f 12 a0 3c 81 25 3a 3d
       -0.083989434 0.016055645 0.01954013 0.045445923
000190 65 81 54 bc 2f ed 9f bd 6c 91 df 3c f8 2d 2d bd
       -0.012970303 -0.07808911 0.027291022 -0.042280167
0001a0 28 a0 9c bd 4b a2 a6 bb da b6 88 3d 16 3d f0 bd
       -0.07647735 -0.005085265 0.06675501 -0.11730401
0001b0 fb 06 be bc cb f5 2d 3c 7d ec dd 3a c7 5b 41 bb
       -0.023196688 0.010617684 0.0016931441 -0.0029504166
0001c0 a3 01 b6 3c cd 03 df bb c1 1a 26 3d 2b a4 6b bd
       0.022217577 -0.006805873 0.04055286 -0.05752961
0001d0 08 f9 d6 3c 86 e3 71 3d 4b 06 a0 bc 69 47 06 bd
       0.026241794 0.059054874 -0.01953425 -0.032782946
0001e0 52 00 38 bd 60 0d 85 3c ff dd 8c bd 66 c9 96 3c
       -0.04492218 0.01624173 -0.0687828 0.018406581
0001f0 83 7d 7e bd c4 f4 95 bc 94 81 8f bc d6 1d f7 bc
       -0.062131416 -0.01830519 -0.017517842 -0.030165594

layer3.weight f4 [128, 128]
000000 aa 5f 5d bd a5 97 bc bd d1 c9 b1 bd 6a c7 0f bd
       -0.05404631 -0.092086114 -0.086810715 -0.035102285
000010 c1 5b 4d 3d 3e de 79 bd 0e 75 19 bd af 49 87 bc
       0.05013633 -0.061002962 -0.037465148 -0.016514627
000020 59 d7 92 bb e6 4c 43 bd 43 75 31 3d 37 fa 26 3d
       -0.004481238 -0.047680758 0.04332472 0.040765967
000030 2f 9e 60 bc e0 8b 93 bc a3 2c 70 3d 9e 4d 59 bd
       -0.013709589 -0.018011034 0.05863632 -0.053052537
000040 b3 33 26 b9 82 37 86 3d 86 71 52 3d 9a 0f 10 3d
       -0.00015850253 0.06553556 0.051377796 0.03517113
000050 ed 81 b5 3b 0b 9d 9e bd c9 33 18 bd b4 ac 21 3d
       0.00553917 -0.07744797 -0.03715876 0.039471343
000060 ef a2 03 bc 8c 1a 9f 3b 5e 32 54 bd 5b bb 0a bd
       -0.008034452 0.0048554596 -0.051805846 -0.033870082
000070 5f 58 04 bd a6 8a 8b 3d f5 58 81 3d 00 44 93 3d
       -0.03231084 0.068135545 0.06315795 0.07190704
000080 ff 9e e4 bb 4d 43 05 bd d7 5b cf bb 93 d4 f1 3c
       -0.0069769616 -0.032534886 -0.006328087 0.029520309
000090 98 9b a0 bd 50 18 96 3d be 42 84 bc 23 0d 82 bc
       -0.07842177 0.07328856 -0.016145106 -0.015875405
0000a0 4e df 6d 3d 8d 00 b2 3d be 6c a3 bc da f0 f5 bc
       0.058074288 0.08691511 -0.019949313 -0.030022074
0000b0 3c 5f 15 3c 5a 60 76 3d e2 e8 24 bd 57 f0 8f 3c
       0.009116944 0.06015048 -0.040261157 0.017570658
0000c0 d4 31 51 3c 31 23 91 bd ac 78 6f bc d1 30 15 bd
       0.012768228 -0.0708679 -0.014616173 -0.036423508
0000d0 fb 4c ac bd 8e a3 ff 3c c4 a6 0b 3d 62 08 2a 3d
       -0.0841312 0.031205919 0.034094587 0.0415119
0000e0 5c 2e bb bd 26 39 14 3d b5 59 42 bd 7f bc 4e bd
       -0.09139702 0.036187313 -0.047448833 -0.050472733
0000f0 fb 91 a9 bc 98 d0 91 bd 3a 00 49 bd 96 6c 3d bd
       -0.020699492 -0.07119864 -0.04907248 -0.046246134
000100 ce 5a e4 bc 50 15 ae bc fc a1 89 3d 45 2b 24 bd
       -0.02787533 -0.021250397 0.06720349 -0.040080328
000110 46 9f a0 bc 12 d3 db bb 35 bb a4 bd 8f 7a 80 bd
       -0.019607197 -0.006708511 -0.080435194 -0.06273376
000120 ca cf a6 bd 9b ff f9 bc ed 47 b8 3d 4d 61 45 bc
       -0.08145101 -0.03051739 0.08998094 -0.012047124
000130 22 4b 5d bd a6 f2 70 3d df 5b 81 bd d2 aa 72 3d
       -0.05402673 0.058825158 -0.06316351 0.05924494
000140 bc 1f b3 3c e9 63 99 3d 67 73 89 bd 8f 78 7b 3c
       0.021865718 0.074897595 -0.067114644 0.015348568
000150 5f b2 85 bd 05 e1 1c 3d 29 29 60 3d 39 71 90 3c
       -0.06528162 0.038300533 0.054726753 0.017632114
000160 21 58 38 bd 9d 9d 84 bd 6d cc 76 bc ed 41 79 3d
       -0.04500592 -0.06475375 -0.015063387 0.060853887
000170 02 80 86 bd 65 20 60 bd 0f c7 e1 bb 1e c3 3d bd
       -0.06567384 -0.054718394 -0.0068901847 -0.046328656
000180 6f 2a 3d 3d 53 d4 83 3d d1 02 8e bd 6f 35 f5 bc
       0.046183046 0.06436982 -0.06934131 -0.029932706
000190 74 4e a7 3c 18 e8 79 3d a9 81 05 3d 60 a8 79 3b
       0.020423152 0.061012357 0.032594357 0.0038094744
0001a0 d6 30 04 bd 86 4a bc bc f3 ec d7 bd 8a ba 80 bd
       -0.032273136 -0.022984754 -0.10543241 -0.062855795
0001b0 71 e7 d1 bc 09 77 8f bc a9 3b 6d 3d 16 a1 07 bd
       -0.025623055 -0.017512815 0.057918224 -0.033112608
0001c0 e7 5b 2d bd 41 f3 75 3d ff 86 eb 3c b3 16 54 bb
       -0.042323973 0.060046438 0.028750895 -0.0032362163
0001d0 95 db 87 bd 41 b9 0c bd 99 81 24 bd e2 19 98 ba
       -0.06633679 -0.03435636 -0.040162656 -0.0011604393
0001e0 26 92 c4 bc 32 95 85 3d c4 ab 62 3d ca a6 30 3d
       -0.02399547 0.065225974 0.05533959 0.043127812
0001f0 61 29 ba bb 75 93 fe 3c ef 64 23 bc ec 90 a1 bd
       -0.0056812023 0.031076172 -0.009972795 -0.0788897
000200 ee 32 38 3d 5e ef 6b bc 8d 88 30 bd 5c 81 41 bc
       0.044970445 -0.014400331 -0.043098975 -0.011810627
000210 33 b3 95 3c bc 3b 72 bc ba 6c e9 bc 3b 98 f9 bb
       0.018273925 -0.01478475 -0.028494228 -0.0076170242
000220 a6 1a 76 3c 1f e9 ac 3b f6 4a 2d bd 58 75 b3 bc
       0.015021002 0.0052768136 -0.042307816 -0.02190654
000230 3c 0d 93 3d 94 e0 80 3d 1b f5 b6 3d 65 58 d0 bc
       0.07180259 0.06292835 0.08933469 -0.025432775
000240 f4 be 63 3d 17 6f 01 bd be 24 34 3c e2 90 2b 3d
       0.05560203 -0.031600084 0.010995088 0.041886218
000250 aa af bc bc 03 92 f2 bb 5b 6c bc 3c 75 fc cd 3c
       -0.023032982 -0.00740266 0.023000887 0.025144795
000260 e5 cf df bc 53 d5 9e 3c 44 1e 04 bd 44 c7 98 bc
       -0.027320812 0.01938883 -0.032255426 -0.018649705
000270 39 48 0b bd c3 b7 81 3d d5 6f c0 3d 50 05 17 3c
       -0.034004424 0.06333878 0.0939633 0.009217575
000280 ff 56 80 bd 58 81 c9 bb 9a 3f d4 3c 83 ca b8 bc
       -0.06266593 -0.006149452 0.025909234 -0.022557503
000290 2b 82 b9 3c 85 06 79 bd 30 64 89 3d 0f 8f 8d bd
       0.022645077 -0.060797233 0.067085624 -0.06912052
0002a0 11 a1 aa 3c 66 0b ff 3c 0f 7e 1a 3d 7c ac 8b 3d
       0.020828756 0.031133365 0.037717875 0.06820008
0002b0 aa a5 96 3d 2d 67 14 3d 9e 0a 85 bd 52 47 f8 bc
       0.07355817 0.03623121 -0.06496166 -0.030307446
0002c0 b1 75 b6 3d 3c d5 59 3d 22 07 d6 bc 9f 08 2b bd
       0.089091666 0.05318187 -0.026126448 -0.04175627
0002d0 72 2a 39 3c 23 e9 92 3d d8 77 8b bc 1c 89 79 3d
       0.011301624 0.071733736 -0.01702492 0.060921773
0002e0 01 b4 03 bd 6a 4d 9d 3d 80 54 63 3b ad fe 7d bc
       -0.032154087 0.07680781 0.0034687817 -0.015502614
0002f0 7c a0 36 3d da dd ca bc ae 2e 90 3a 82 55 1a bd
       0.044586644 -0.02476399 0.001100024 -0.037679203
000300 84 81 fc 3c 8b 6d 8b 3d 7d 34 95 3c 39 15 9b bd
       0.030823477 0.06808003 0.018213505 -0.07572407
000310 28 ad 6c bd 0c 53 c5 bc 47 74 9d bc 1d cb 94 3d
       -0.057782322 -0.024087451 -0.019220484 0.07265303
000320 4f 7c 0b 3c b6 2c e8 3c 46 ca 4b bb 43 8f cc 3c
       0.008513524 0.028341632 -0.0031095906 0.024970656
000330 0f e3 a2 bd d4 5d 84 bd 9b d6 aa 3c 13 77 e7 bb
       -0.07953464 -0.06463209 0.020854285 -0.0070637553
000340 24 58 9e bd 8d d9 8c bc a7 ef 62 3d e9 6c c1 3c
       -0.07731655 -0.01719358 0.05540433 0.023611503
000350 6f 65 43 bd 70 54 8f 3d 48 91 0b bd 78 d7 76 bc
       -0.047704156 0.06998527 -0.034074098 -0.01506602
000360 ca 6b d2 3a 7f c6 cc bc f1 f1 6c bc 5a fb b3 3c
       0.0016053852 -0.024996994 -0.01446198 0.02197044
000370 22 d4 59 bd 25 a4 14 3c 89 f4 8a ba 23 2f ad 3d
       -0.05318082 0.009072338 -0.0010601442 0.08456256
000380 e1 ed 93 bd 53 21 2c bd 1f 86 85 bc a3 4a ab bd
       -0.07223106 -0.042023968 -0.016299305 -0.08363845
000390 00 f0 d5 3a aa e1 62 bd d4 c2 82 3d 5d f2 59 3d
       0.0016322136 -0.05539099 0.06384817 0.05320965
0003a0 18 54 5a bd e7 eb 8d 3b e6 5f 64 bc e1 a8 e7 bc
       -0.053302854 0.0043311003 -0.01393888 -0.02827877
0003b0 16 b0 6a 3d 6d fe 85 bd b1 36 9f bd ab 24 84 bd
       0.057296835 -0.065426685 -0.077741034 -0.06452306
0003c0 1c 97 69 bd f7 9d 27 bd 64 6e 27 3c 15 47 6b bd
       -0.057028875 -0.04092213 0.01021919 -0.057440836
0003d0 aa 13 bb bc 44 31 ae 3d 8c 0f 40 3b 0e e0 e9 bc
       -0.022836525 0.085054904 0.0029306142 -0.02854922
0003e0 80 e9 ba bc 6a f8 2c 3c 5d 4b 9d 3c c2 c1 83 bd
       -0.02281642 0.010557273 0.019200975 -0.06433441
0003f0 e0 4a 76 bd 5e e9 b3 bc 4b a8 46 ba c3 63 15 bd
       -0.06013 -0.021961864 -0.0007578178 -0.036472093

layer3.bias f4 [128]
000000 5c 5b 55 3c 90 29 f8 bb 00 42 f0 bc d3 c7 62 bd
       0.01302227 -0.007573314 -0.029328346 -0.05536635
000010 35 94 d1 bc b0 fe 37 bc 46 d9 c3 bc 57 ba 21 3d
       -0.025583366 -0.011230156 -0.023907315 0.03948435
000020 07 85 88 3d 97 dc 4a 3c fa a8 27 bd ad 51 90 bd
       0.06665998 0.012381694 -0.040932633 -0.070468284
000030 21 a8 72 bd 0c 13 16 3d a7 36 8d bd 1b 78 37 3d
       -0.05924237 0.03663926 -0.0689519 0.044792276
000040 75 12 6b 3d 85 4f 79 bd d5 f7 9d 3d 5b 27 8a bc
       0.05739065 -0.06086685 0.07713286 -0.01686447
000050 cb 8b c4 3b f9 e0 69 3d 25 98 99 bd 4c 2c 67 bd
       0.00599811 0.057099316 -0.074997224 -0.05643873
000060 68 50 83 3d 31 5e 34 3b ec 4c 95 3d 18 07 c3 bc
       0.06411821 0.0027521963 0.07290062 -0.023807094
000070 e5 c7 86 bc 45 d5 43 bd 37 9e cf 3c 26 36 9a 3d
       -0.016452739 -0.04781081 0.025343997 0.07529859
000080 38 c9 b3 3d 11 b4 30 3d 64 a0 92 3d 5b 8d 22 bd
       0.08778614 0.043140475 0.07159498 -0.03968559
000090 30 e5 f5 3b 0a d1 33 bd 87 77 5a 3d 6b a5 9c bc
       0.007504128 -0.043900527 0.053336646 -0.019121846
0000a0 2b 69 65 bd b5 f8 82 3d 64 8f 59 bd 48 e4 e4 3c
       -0.0560085 0.06395093 -0.053115264 0.027940884
0000b0 cb 76 6e 3a e5 7b 41 bd 61 64 1d bd 8b 44 92 bd
       0.0009096681 -0.047237296 -0.038425807 -0.0714198
0000c0 1a 7f ee bb 0e 6b 22 3b 67 2d 8b 3d 97 53 8f bd
       -0.0072783353 0.0024783048 0.06795769 -0.06998365
0000d0 db c3 98 bd 5d 00 34 3d 36 51 3e 3c a1 6b b6 bd
       -0.074592315 0.04394566 0.011616042 -0.08907247
0000e0 ac 42 97 bd 5f fc e3 bc d5 ac 38 3d df be 85 3d
       -0.073857635 -0.0278303 0.0450867 0.065305464
0000f0 bb 60 1c bd a1 0a 7b bd bb f3 6a bd ba 1c 4e 3d
       -0.038178187 -0.061289433 -0.057361346 0.050320365
000100 e1 6d 06 3d 25 8b 63 bd 22 e8 61 3d 56 de a7 bd
       0.032819632 -0.05555262 0.05515302 -0.08196704
000110 f4 99 0b bd bf 14 79 3d e0 10 09 bb 6d d1 c8 3b
       -0.034082368 0.0608108 -0.00209146 0.006128481
000120 d8 52 9c bc 66 5f 98 bd b2 63 b6 bc d5 1f 02 3d
       -0.019082472 -0.07440071 -0.022264335 0.03176864
000130 7d 0c 90 3d 77 a2 85 3c 30 6c 6d bb 15 c9 0a bb
       0.07033632 0.01631282 -0.0036227815 -0.0021176983
000140 97 65 71 bc 62 c3 30 bd 01 d8 94 bb e5 a0 25 bd
       -0.014733694 -0.04315508 -0.0045423512 -0.040436644
000150 23 3f 05 bd fc 95 3c 3d 70 72 05 bd 28 0c ba 3b
       -0.032530915 0.046041474 -0.03257984 0.0056777187
000160 00 e2 50 3d 87 64 0a bd 54 c1 96 ba f3 2d 16 3c
       0.05099678 -0.033787277 -0.0011501708 0.009166229
000170 1f a5 0c bd b5 6b 27 3d a2 d2 98 bd 1b ec 6b bd
       -0.03433716 0.0408742 -0.0746205 -0.057598215
000180 a7 da a9 bd 7d 41 3e bc cf 20 17 bd 57 46 b0 bc
       -0.08293658 -0.011612293 -0.036896523 -0.021517916
000190 ae 9e ae bb 45 1c 29 3b 5b f5 77 3d aa a1 85 3d
       -0.0053289747 0.0025804203 0.060536724 0.065249756
0001a0 9d c3 16 3d bf f1 cd 3c 54 08 ed bc 7d fb 32 bd
       0.036807645 0.025139688 -0.028934635 -0.04369687
0001b0 be 7a 55 3d 2c 90 a5 bd 8e 69 ce 3c e1 8e 2b 3b
       0.05211901 -0.08084139 0.025196817 0.0026177692
0001c0 d7 32 03 3d 3d ee 6a 3c 79 7f 3c bd c6 1c 8c 3c
       0.032030907 0.014339027 -0.046020005 0.017103564
0001d0 50 0c ee bc f8 33 1c bd aa 3e e3 3b 82 73 5a bd
       -0.029058605 -0.0381355 0.0069349604 -0.053332813
0001e0 d5 b7 9e bb e3 2d 0f bd 8a 7d 2f bd 44 e3 8b bd
       -0.004843692 -0.03495587 -0.042844333 -0.06830457
0001f0 9a 10 53 3d c4 b1 6b 3d 50 58 8c 3d 3e ee 5c 3d
       0.051529504 0.057542577 0.06852782 0.053938143

layer4.weight f4 [8, 128]
000000 95 85 60 bd 52 d7 10 3d 10 c9 6b bd e0 1a bd bc
       -0.054814894 0.035361595 -0.057564795 -0.023084104
000010 e0 fe 50 bc 20 ed 51 3c 9e fe 4f 3d f6 1f 07 3d
       -0.012756079 0.012812883 0.05077993 0.032989465
000020 64 04 ad bc 2a 5a 01 3d 68 51 c5 bc 1b 96 ac 3d
       -0.021120258 0.031580128 -0.02408667 0.08427068
000030 35 d9 95 3d 03 42 68 bd b2 f5 14 bd e9 2e 1c bd
       0.073168196 -0.05670358 -0.036367126 -0.038130675
000040 5d d6 95 3d 09 7c 9c bd 38 60 3b 3c 53 0b b3 bd
       0.07316277 -0.07640845 0.011436515 -0.08742394
000050 98 a0 b5 3c 01 4e a4 3d 0f 6d 9a bd a4 8b b0 3c
       0.022171304 0.080226906 -0.075403325 0.02155096
000060 5a 67 04 3d 20 23 e2 3c 38 d2 73 3c e4 f6 ce bc
       0.032325126 0.02760464 0.014881663 -0.025264211
000070 74 ba b0 3c b2 c9 4e 3d 15 ed a8 3d 9a 81 63 bd
       0.021573283 0.05048532 0.08248345 -0.05554352
000080 9a 20 70 3d 2b 8e b4 3d b0 2f e4 3b 12 02 6e 3d
       0.05862484 0.08816179 0.0069636926 0.058107443
000090 1a 30 a2 bd be f4 fe bc 69 6b 88 3d 58 a0 cd 3c
       -0.07919331 -0.031122562 0.06661112 0.025100872
0000a0 bf 8d 98 bd b2 85 f2 bc f5 3f 89 3d 20 0a 01 3d
       -0.07448911 -0.029604767 0.06701652 0.031503797
0000b0 8a 87 12 bd b7 5f a6 3d 8f 7f 8d 3d 08 50 73 bc
       -0.03577379 0.08123725 0.069090955 -0.014850624
0000c0 6c e0 82 3c a2 21 77 3d 23 df 5b bd 2a ab 50 bd
       0.015976153 0.06033481 -0.053679597 -0.050944485
0000d0 89 09 8e bd 3c 7b 31 bd 40 f8 a6 bd 9d 7d ad 3d
       -0.069354124 -0.043330416 -0.08152819 0.084712245
0000e0 25 ff 3d bd 64 b2 c6 3c 60 b0 9d 3c 60 2e c3 bb
       -0.046385903 0.024254985 0.019249141 -0.005956456
0000f0 3a d4 18 3d 9d 1b 30 bd f6 e9 3c 3d c0 90 86 3a
       0.03731177 -0.042995084 0.04612156 0.0010266528
000100 34 73 00 bd 7d de a2 bd 76 84 59 3d fe d7 24 3d
       -0.031359866 -0.079525925 0.05310484 0.04024505
000110 98 e8 19 3c a0 a4 e7 3c fa e9 67 3d 46 1b 21 3d
       0.009393834 0.028276742 0.05661962 0.03933265
000120 7e 12 26 3d 20 93 43 bc 30 da 93 bd 53 c4 52 bd
       0.04054498 -0.011936933 -0.0721935 -0.05145676
000130 cd 7e ae bd 36 f4 74 3d 40 ac fe ba 5c d9 fa bc
       -0.08520279 0.05980321 -0.0019429997 -0.030621223
000140 18 f7 ac 3c 6b 6f 21 bd 98 8a 72 bd ed c0 a8 bd
       0.021113917 -0.039412897 -0.059214205 -0.08239923
000150 f2 db 98 bd 40 09 ba bb b0 38 dd 3c 34 c7 40 bd
       -0.07463826 -0.005677372 0.02700457 -0.047064975
000160 31 3f 34 bd bc d9 a9 3c 9e 6a 5b bd 08 a9 27 3c
       -0.044005577 0.020733707 -0.053568475 0.010233171
000170 9e 06 1c bd 70 da fc 3c 40 5c cf bc b0 e6 35 3c
       -0.03809225 0.030865878 -0.025312543 0.0111023635
000180 ff de b3 bd 0e 27 77 3d 54 63 e0 3c b5 1b 29 bd
       -0.087827675 0.06033998 0.027391113 -0.04128619
000190 6a 88 62 3d 4e 17 6b bd de 83 59 3d e8 e8 ba 3c
       0.055305876 -0.057395272 0.053104274 0.022816136
0001a0 9e f6 a7 bd 43 92 81 3d 89 2f ae bd 18 6f 8a bc
       -0.08201335 0.06326725 -0.0850516 -0.016898677
0001b0 54 94 00 bd a3 5b 90 3d 59 84 b2 3d d9 93 99 bd
       -0.031391457 0.07048728 0.087166496 -0.07498903
0001c0 8d da 2f bd e0 21 8b 3c 83 3d 8c 3d bf b0 ad 3d
       -0.042933036 0.016983926 0.0684767 0.08480977
0001d0 46 ba 65 3d fd 84 29 bd 97 27 58 bd b8 ee a3 bc
       0.056085847 -0.041386593 -0.05277213 -0.02001129
0001e0 20 15 89 bd 64 9b ac 3c e4 6f 90 bd 41 c3 a4 3d
       -0.066934824 0.02107019 -0.070525914 0.08045054
0001f0 f8 41 5b 3c a6 6b 67 3d 16 99 1a bd 96 a0 39 3d
       0.013382427 0.056499146 -0.03774365 0.045319162
000200 3f 2f b4 3d 4e 98 7b 3d f8 1c 69 3c 08 51 37 bc
       0.08798074 0.061424546 0.014228098 -0.011188753
000210 d0 48 85 bb 90 2d 10 3c c3 10 a1 3d f8 a4 3d 3c
       -0.004067518 0.008799925 0.07864525 0.011574976
000220 84 a0 8a 3c cb 99 b1 bd 80 b6 00 bb b6 57 73 bd
       0.016922243 -0.08671912 -0.0019640028 -0.05940982
000230 cc f0 cd bc 56 e9 74 bd a8 82 58 bc d9 b2 9a 3d
       -0.025139235 -0.05979284 -0.013214745 0.07553644
000240 52 7d da bc 92 96 74 bd e7 2e 5f bd ae ae b1 bd
       -0.026671086 -0.059713908 -0.05448809 -0.08675896
000250 a0 cc ff bb cc 10 a0 bd 94 e1 35 bd 57 0c 6c bd
       -0.0078063756 -0.07815704 -0.04440458 -0.057628956
000260 00 38 d1 3c ff 42 8f 3d ba f5 7f 3d c0 3f 6a bd
       0.025539398 0.069952 0.062490202 -0.057189703
000270 10 a7 75 bc 62 54 1d 3d 30 ac a9 bd a0 26 44 3b
       -0.014993444 0.03841055 -0.08284795 0.002993025
000280 30 64 74 3c 80 1c 88 ba 5b 56 00 bd b2 bd 2e 3d
       0.014916465 -0.001038447 -0.031332355 0.042661376
000290 86 f5 1d bd a0 a2 4a bb e5 00 ac 3d c1 ea 80 3d
       -0.038564228 -0.0030919686 0.08398608 0.06294776
0002a0 b2 14 af bd 4d 0f 97 3d 7b 24 85 bd c8 e6 b1 3c
       -0.08548869 0.07375965 -0.06501099 0.02171649
0002b0 fb 6f 80 3d 6c 72 a2 bc fd 1f 8b 3d 80 db 1d 3c
       0.062713586 -0.019829951 0.06793211 0.009634852
0002c0 d8 d7 00 bc 2f 2a 09 bd 06 15 b3 bd f9 4c 1e bd
       -0.007863961 -0.033487495 -0.08744244 -0.038647626
0002d0 4a 88 4e 3d 30 c1 f5 bc e6 0c 4d 3d 7a 14 4d 3d
       0.050422944 -0.029999346 0.05006113 0.050068356
0002e0 66 5a 7b bd c5 da 8a 3d a4 0d d9 3c 00 8c 46 3a
       -0.061365508 0.06780008 0.026495762 0.0007573962
0002f0 c4 6e 0c 3d 84 3f 92 bc e6 b7 76 3d 4b 7f 8a 3d
       0.03428532 -0.017852552 0.060233973 0.067625605
000300 c2 f1 37 3d c8 af 76 3c 10 c4 ac bd 04 e8 a4 bd
       0.044908293 0.015056558 -0.084358335 -0.08052066
000310 e0 7f 4d 3c 3c 3e 87 bd e4 fd fd 3c 35 70 a6 3d
       0.012542695 -0.06603667 0.031004854 0.081268705
000320 48 c2 9e 3c c0 36 7b bc a2 ec 59 3d 0c bf 97 bc
       0.01937975 -0.015332878 0.053204186 -0.018523715
000330 29 7f 52 bd a1 ba ad bd f0 71 b4 3c 7b 65 44 bd
       -0.0513908 -0.08482862 0.022026986 -0.04794834
000340 a2 73 8a bd 48 ff e4 3c d4 64 8c bc 27 e2 72 bd
       -0.067603365 0.027953759 -0.017137922 -0.059297707
000350 c0 81 d4 3c 85 cc 5d bd 9d de 3c bd f8 1d 14 3c
       0.025940776 -0.054150123 -0.046110738 0.009040348
000360 1e cb df bc af f7 89 bd 28 36 62 bc 50 ee 77 bc
       -0.027318534 -0.06736695 -0.013806857 -0.015132502
000370 80 8c 12 3d 0b 7b 82 3d cf fc 84 bd 7c 08 9c bc
       0.035778522 0.06371125 -0.06493532 -0.019047014
000380 ef 37 ab 3d 58 92 78 bc cf 69 9c 3d 30 72 e8 3b
       0.08360278 -0.01517161 0.07637369 0.0070936903
000390 99 94 86 3d b8 78 89 3c 16 60 25 bd 74 0e a7 3c
       0.065713115 0.016781196 -0.040374838 0.020392634
0003a0 00 cf 6b 3b 08 ae 8b 3c de 87 85 bd 0f 9c 87 3d
       0.0035981536 0.017050758 -0.06520055 0.06621563
0003b0 fb 1e 94 bd 07 3c 2c bd 63 41 87 3d af 89 b4 3d
       -0.072324716 -0.042049434 0.066042684 0.088153236
0003c0 c8 64 80 3c 32 8f 3f 3d c8 ae f5 3c a4 37 94 bc
       0.015673056 0.04676742 0.029990569 -0.018092938
0003d0 c0 34 ea bb 98 b8 3f bc da 57 88 bd 1d 40 a4 3d
       -0.0071474016 -0.011701725 -0.06657381 0.08020041
0003e0 f4 66 bd 3c 62 6c 2b 3d 50 99 16 3c 4d ee 99 3d
       0.023120381 0.04185141 0.009191826 0.075161554
0003f0 d7 69 8e 3d ec 5f ac bc 22 ff a0 bd 44 e6 ab bc
       0.06953781 -0.021041833 -0.07861163 -0.020983823

layer4.bias f4 [8]
000000 e1 49 b3 3d a4 7d e9 3c d1 bb a1 3d 04 da e7 bc
       0.08754326 0.028502293 0.07897151 -0.0283022
000010 c0 72 8b bd 9a 0e 73 bd 3c b0 84 3c 82 9e 9c bd
       -0.06808996 -0.059340097 0.016197316 -0.076474205

layer1.weight f4 [128, 22]
000000 30 70 4a bc 24 d5 48 be 02 d7 4c be 68 f8 89 bd
       -0.012355849 -0.19612557 -0.20003894 -0.06736833
000010 28 70 93 3c 20 f8 e8 3b 80 88 7c 3d 84 6a a6 bd
       0.017997816 0.007109657 0.061653614 -0.08125785
000020 9e b3 97 bd ac c8 81 3d 54 5d 34 bd d7 1e 58 be
       -0.07407306 0.06337103 -0.044034317 -0.21105514
000030 54 73 44 3e bf 04 31 be a0 42 8d bc 60 27 48 3c
       0.19184619 -0.17286967 -0.017243683 0.012216419
000040 28 6c 0f 3e 4b 58 44 be 78 f1 3f 3d f6 21 88 bd
       0.14006102 -0.19174306 0.046861142 -0.066471025
000050 c4 01 34 bd d0 38 34 3e 2c 1f b3 bd f8 59 d3 3c
       -0.043946996 0.17599797 -0.0874618 0.025799736
000060 79 55 46 be b6 ef 45 3e e0 28 d8 3b de 46 30 3e
       -0.19368543 0.19329724 0.0065966696 0.17214534
000070 f4 78 c7 3d fc aa 42 3e b7 88 02 be 08 a0 44 3d
       0.09739867 0.19010538 -0.12747465 0.04800418
000080 82 b5 34 3e 24 1a 68 bd b0 3b ac 3d 68 a4 53 be
       0.17647365 -0.056665555 0.08409822 -0.20668185
000090 53 62 01 be 30 38 86 bd e4 2e 7c bd 0a b9 21 be
       -0.12635164 -0.06553686 -0.061568156 -0.15793243
0000a0 be 44 14 3e d4 1f 95 bd c0 04 96 3c 19 4a 09 be
       0.14479348 -0.07281461 0.018312812 -0.13407172
0000b0 26 dd 08 3e 48 3c 28 3e 3e de 93 bd cc cb 3c bd
       0.13365611 0.16429245 -0.07220124 -0.046092793
0000c0 28 c0 88 3c 18 7c e1 3c 04 ee a3 3d 74 ce e6 3d
       0.01669319 0.027524993 0.08004382 0.112698466
0000d0 fc e9 2a 3e 70 06 28 3e 0e 1e 4b 3e 93 10 09 be
       0.1669082 0.16408706 0.19835684 -0.13385229
0000e0 c4 f1 84 3d 72 ca 03 be 84 75 ac 3d 27 62 03 be
       0.06491426 -0.12870196 0.08420852 -0.12830411
0000f0 8f f6 1c be 8c 3a 97 3d e0 9a bb 3c 54 48 d5 3d
       -0.1532843 0.07384214 0.022900999 0.10414186
000100 2c 4e 8a 3d 04 b8 4d be 00 aa cf ba 11 4d 05 be
       0.06753191 -0.20089728 -0.0015843511 -0.1301768
000110 b8 c2 e5 bd 18 d2 40 3e 77 ed 47 be 18 a7 57 bd
       -0.1121878 0.18830144 -0.1952418 -0.052649587
000120 65 39 1a be 9c af 49 3e d8 4c 20 3e 82 2d 37 3e
       -0.15060957 0.19695896 0.15654314 0.17888454
000130 88 3d fe bc c6 dd 83 bd e0 f6 e9 3b a0 7f a7 bc
       -0.0310352 -0.06438784 0.0071400255 -0.020446599
000140 95 d2 da bd 3c 80 2f be 8e 0a f5 bd f2 78 2d 3e
       -0.106846966 -0.17138761 -0.11964904 0.16940668
000150 06 10 1e 3e fe 21 2d be b3 56 49 be 84 70 1b be
       0.154358 -0.16907498 -0.1966198 -0.1517964
000160 52 9c 85 bd 0c 4a 3e 3e b6 fb a2 bd 10 39 56 bc
       -0.06523956 0.18582934 -0.07958166 -0.013075128
000170 da ed e5 bd e8 08 55 3d d3 c3 4a be 18 a4 a1 3d
       -0.11227007 0.052010447 -0.19801264 0.078926265
000180 04 fe bb 3d 48 a3 f2 3c a8 70 a1 3d d4 2a 0a bd
       0.09179309 0.029618874 0.078828156 -0.03373225
000190 74 9a bb 3d 94 bf b2 3d 80 48 44 bb 20 53 a4 3c
       0.09160319 0.08727947 -0.002995044 0.020059168
0001a0 38 de 58 3d 70 18 4e 3c c1 0f 45 be 9c 03 1c be
       0.0529463 0.012579069 -0.19244291 -0.15235752
0001b0 40 de 41 bb a2 7f 2f 3e fa 2e 87 bd 38 45 55 3d
       -0.0029581934 0.17138532 -0.06600757 0.052067965
0001c0 50 cf 06 bd 80 c0 1f bb e4 e0 de 3d ad 36 22 be
       -0.032912552 -0.0024376214 0.10882738 -0.1584117
0001d0 f4 85 e2 3d 8c 38 25 3e a0 12 54 3d 3e 6d c3 bd
       0.11060706 0.16134852 0.051775575 -0.09542321
0001e0 63 72 eb bd 08 7a 63 3d c8 93 29 3e 4c 65 4d 3e
       -0.11496427 0.0555363 0.1656028 0.20058173
0001f0 b0 91 08 be 1c 5f 87 bd 00 4e 4f 3e 34 1c 2f 3e
       -0.13336825 -0.066099375 0.20244598 0.17100602
000200 ba 9c 1a 3e d8 22 c6 bc 50 90 94 3d 18 20 e2 bc
       0.15098849 -0.024186537 0.07254088 -0.027603194
000210 1b 95 2e be f1 a5 57 be 80 cd 46 3b bc 62 d2 3d
       -0.17049067 -0.21059395 0.003033489 0.10272738
000220 08 9c b1 3c 20 47 ac bc 98 40 47 be b4 26 c3 3d
       0.021680847 -0.021030009 -0.19458234 0.095288664
000230 f4 09 0e be 24 e5 2f 3e 3e 29 d2 bd 9b 56 b5 bd
       -0.13870984 0.17177254 -0.102617726 -0.08854409
000240 c4 b2 89 bd f8 fc 5d bd 98 5a 21 3d 8c d4 ae 3d
       -0.0672355 -0.054196328 0.039393038 0.08536634
000250 20 06 4e 3d d4 49 81 3d 82 53 1c be ce 62 89 bd
       0.05029881 0.0631291 -0.1526623 -0.067082986
000260 5b d7 20 be 58 dd 8f 3c d8 3a 2a bd 5e b4 01 be
       -0.15707152 0.0175616 -0.041560024 -0.12666461
000270 fc c7 3d 3e 29 ca b6 bd d0 f5 96 3d 18 7e 1e 3e
       0.18533319 -0.08925278 0.07371104 0.15477788
000280 ac b2 17 3e f2 60 3e be 68 f7 1d 3d fb 23 e5 bd
       0.14814252 -0.18591669 0.038566023 -0.11188503
000290 95 34 40 be 6e 71 2a 3e 90 f0 23 bd 81 50 ed bd
       -0.18770058 0.16644832 -0.04002434 -0.115876205
0002a0 60 ee 41 bd 20 df d1 bc c4 30 32 bd e0 3b 05 bd
       -0.047346473 -0.02561909 -0.043503538 -0.032527804
0002b0 60 6c d7 bd 94 b5 93 3d 33 b6 0c be f9 1c 34 be
       -0.10518718 0.07212368 -0.13741378 -0.17589177
0002c0 98 f7 78 3d 90 84 cf bc 0c ee 56 3e d5 3d d9 bd
       0.060783 -0.025331765 0.20989245 -0.10607497
0002d0 78 e3 25 3d f0 85 a2 bd 2b 07 cf bd ee 8b 13 be
       0.040500134 -0.07935703 -0.10108789 -0.14408848
0002e0 00 9c 0c 3e 34 ce 20 bd 7a 07 36 be 08 13 f9 3d
       0.13731384 -0.03925915 -0.1777629 0.12161833
0002f0 c0 a0 59 3b 24 d7 8d 3d 74 d0 dc 3d a4 4f c6 3d
       0.0033207387 0.069258004 0.10781947 0.09683159
000300 2c aa 20 bd 0a 16 36 3e d8 81 e7 3d b0 8f 22 bd
       -0.03922479 0.17781845 0.113040626 -0.039687812
000310 13 4c 53 be 88 46 21 be d8 60 e0 3d c4 df 3a 3e
       -0.20634489 -0.15749562 0.109559715 0.18249422
000320 b0 5f 60 3d 60 e3 c8 bb 04 76 ac 3d de 1f 90 bd
       0.054778755 -0.006130621 0.08420947 -0.07037328
000330 b3 95 0a be 8c e2 dc bd f0 51 53 3d 8c 77 93 bd
       -0.13533668 -0.10785398 0.051591814 -0.07200536
000340 0c ca 18 bd f0 35 a5 3d 80 7b 47 3d 4b b0 19 be
       -0.037302062 0.080669284 0.048701763 -0.15008657
000350 e4 3c 1d be 4c 0f 9b 3d ae 6f 8b bd 40 c2 8c bd
       -0.15355259 0.07571277 -0.068084106 -0.06872988
000360 44 c4 42 3e 00 5d 3b ba c0 c0 00 be c4 2b 1e 3e
       0.19020182 -0.0007147342 -0.12573528 0.15446383
000370 70 5e d4 bd 18 10 2f 3e 29 1a c2 bd 7c a8 29 be
       -0.10369575 0.17095983 -0.09477646 -0.16568178
000380 1a 9f 3c 3e 9a 0b db bd 6a 0b 10 3e a8 7b b6 3d
       0.18420067 -0.10695572 0.14066854 0.08910304
000390 28 2e fb 3d a0 f4 7d 3d f2 8e ee bd 18 4e 81 3d
       0.12264663 0.06200087 -0.116483584 0.06313723
0003a0 e4 03 2c be 28 7b b3 3d 4c 74 51 bd 80 c3 9a bb
       -0.16798359 0.087637246 -0.0511363 -0.0047230124
0003b0 28 e2 a1 3c d2 bf 0a 3e 20 14 0f 3c 30 7a de bc
       0.01976116 0.13549736 0.0087328255 -0.027157873
0003c0 e0 d5 1d be 00 be 89 b9 78 ed 8a 3d 38 58 8b bc
       -0.15413618 -0.00026272237 0.06783575 -0.01700984
0003d0 60 bd 2b be 86 a7 af bd 6b ef 27 be a8 f0 0c bd
       -0.1677146 -0.085768744 -0.16399924 -0.034409195
0003e0 74 17 8b bd 10 5c 4b 3d f8 6d 38 3e 62 ac 1f 3e
       -0.06791583 0.049648345 0.180107 0.15593103
0003f0 30 50 e3 3d 54 4d ba 3d 4c 96 02 be 73 cc 32 be
       0.11099279 0.090967804 -0.12752646 -0.17460804

layer1.bias f4 [128]
000000 f4 4f 52 3e fa ba f2 bd 84 1d 02 bd a8 d5 12 bd
       0.20538312 -0.11852069 -0.03176643 -0.03584829
000010 3c d5 52 bd 47 1a 59 be c8 4f 84 3c c6 67 4b 3e
       -0.051472887 -0.2120143 0.016151324 0.19863805
000020 97 1c 28 be 33 dd 22 be 8c 80 e4 3d 00 05 7c 3b
       -0.16417156 -0.15904693 0.11157331 0.0038455129
000030 ba 7c 18 be 50 41 5c bc a0 22 12 3e d6 3e 12 3e
       -0.1489133 -0.013443306 0.14271021 0.14281783
000040 e4 45 55 be 3c 34 14 3e ce e0 4f 3e 37 46 2e be
       -0.20827442 0.14473051 0.203006 -0.17018972
000050 34 57 ac 3d 7c 68 20 3e 9a 33 dc bd bc 81 16 3d
       0.0841507 0.15664858 -0.1075203 0.036744818
000060 78 92 3d 3e 58 a5 ec bc 98 b7 69 3d 40 ba 10 3c
       0.18512905 -0.028887436 0.057059854 0.008833468
000070 f0 0e 33 3d 18 f9 e2 3d b4 f8 e7 3d c0 bd c4 bc
       0.043715417 0.11082667 0.11326733 -0.024016261
000080 6c dd a3 3d 58 4b f4 3d d0 c9 83 bd 20 29 58 bd
       0.08001217 0.11928433 -0.06434977 -0.052773595
000090 a2 65 51 3e e2 5c 27 be b6 19 3f be 86 4f e2 bd
       0.20448926 -0.16344026 -0.18662152 -0.11050324
0000a0 fb b1 be bd de 6b e6 bd d0 34 cc bc a0 d6 40 3e
       -0.09311291 -0.11251043 -0.024927527 0.18831873
0000b0 58 25 f3 3c 26 87 01 be 1c 1b 0e 3d c6 ca a8 bd
       0.029680893 -0.12649211 0.034693822 -0.08241801
0000c0 bf 35 3e be a4 92 20 bd 40 bc d1 3c fa 10 22 3e
       -0.1857519 -0.039202347 0.02560246 0.15826789
0000d0 18 d0 4f 3d 83 58 59 be e8 0d 80 bc fa e3 34 3e
       0.050735563 -0.21225171 -0.015631631 0.17665091
0000e0 2c ca c7 bd b8 8d 14 3e 04 ee aa 3d ec dc 4f be
       -0.09755358 0.14507186 0.08346179 -0.20299119
0000f0 54 59 74 bd 5e 91 41 3e d0 a3 bc 3d 60 98 9c 3d
       -0.059655502 0.1890311 0.09210932 0.07646251
000100 20 28 7e 3d 80 91 26 bb b0 ff 44 bc c0 bf 9f bd
       0.062049985 -0.0025416315 -0.012023851 -0.07800245
000110 22 03 09 3e 72 39 f5 bd a6 dc 04 be c0 27 ff bb
       0.13380101 -0.119738474 -0.12974796 -0.007786721
000120 14 99 27 be c6 4c 16 3e b2 1a 50 be 00 6f 4d bd
       -0.16366988 0.14677724 -0.20322683 -0.050154686
000130 8a 87 05 3e 90 6b 58 3d 0c 61 25 bd c8 5b 63 3d
       0.13039985 0.052836955 -0.040375754 0.05550745
000140 2b 7a 44 be 48 04 88 3d 57 9c f0 bd 6c 56 cf 3d
       -0.19187228 0.066414416 -0.117485695 0.101239055
000150 00 0f e5 bc a0 d7 e2 3c be fd 94 bd f1 32 e1 bd
       -0.027961254 0.027690709 -0.0727496 -0.109960444
000160 76 99 39 be f0 30 1c 3d 1f a4 cd bd 2c d7 ea 3d
       -0.18124947 0.038132608 -0.10041069 0.11466822
000170 80 61 43 3c b2 50 01 be 56 ac 2e 3e b2 c8 40 3e
       0.011925101 -0.12628439 0.17057928 0.18826559
000180 10 70 1e 3c e4 3e 2f 3e 96 ac 2a 3e a8 46 69 3d
       0.0096702725 0.17113835 0.16667399 0.05695215
000190 70 8b 40 3d ea 20 11 be 26 ba 54 3e 08 ed e2 3d
       0.047007978 -0.14172712 0.20774135 0.110803664
0001a0 22 60 a5 bd 04 11 5a bd 35 7c 1a be 02 ff 3c 3e
       -0.080749765 -0.053238884 -0.15086444 0.18456653
0001b0 32 d4 fc bd 08 c5 80 3c 1c e3 3b 3e 54 89 52 3e
       -0.123451605 0.015718952 0.18348354 0.20560199
0001c0 40 fb 14 be e8 2c 1d 3e 28 06 05 3d 88 34 90 bd
       -0.1454897 0.15349162 0.032476574 -0.070412695
0001d0 34 90 3b 3e ac d5 ef 3d 32 ba 96 bd ee cd a4 bd
       0.18316728 0.117106766 -0.07359733 -0.080470905
0001e0 38 79 03 3d ea fb 57 be 40 bb 00 3b f0 ed a5 bc
       0.032098025 -0.21092191 0.001964286 -0.020255059
0001f0 b4 85 5a bd 58 fb 98 bd 10 af 6a bd f8 52 6a 3d
       -0.053350165 -0.07469815 -0.05729586 0.05720803
